neuronNetwork/model/Net_decoder_para.pkl (torch, 11759 bytes, 20 tensors)

0.weight f8 [4, 2]
0.0485328226139521 1.9019667696720473 -0.9826157223760833 0.09995453603790616 1.0856973206184546 0.18475084081584572 -0.12213387976382643 -2.354264972845056
00000000: 22a9 d14b 4bd9 a83f 921f 1db5 746e fe3f
00000010: 8f80 0487 9671 efbf 10a2 5ed7 9e96 b93f
00000020: d293 5627 045f f13f 2535 9b61 eaa5 c73f
00000030: 1bb9 517b 2a44 bfbf 1be7 c3df 88d5 02c0

1.weight f8 [4]
0.730067145179764 1.4934363104375652 1.0107429176513167 1.3797335708882383
00000000: 26cc 0dc6 b55c e73f dbcf ff78 1de5 f73f
00000010: ce9d ffc3 002c f03f 5288 4282 6313 f63f

1.bias f8 [4]
0.02374850613581892 0.17158795447259048 0.36503773808761975 0.2302060039985957
00000000: 0292 ba44 8751 983f c174 6c16 98f6 c53f
00000010: d418 b93e c75c d73f f426 42ed 6377 cd3f

1.running_mean f8 [4]
0.8678343827704343 -1.1587849739890868 1.4059986132044795 -1.151913713475958
00000000: d1fc 8a9c 4cc5 eb3f c511 e61c 628a f2bf
00000010: 18f4 de66 f87e f63f 2917 f312 3d6e f2bf

1.running_var f8 [4]
0.577273926401811 0.8480545285237222 1.0107824410038542 0.8805277520236355
00000000: 5656 572b 0779 e23f a27d 2740 4323 eb3f
00000010: beb8 7735 2a2c f03f 632e 4589 482d ec3f

3.weight f8 [8, 4]
0.16685724619809658 1.3449250649335198 -0.6131521976383342 -0.18277870101978475 0.39801935252496995 0.5374003838046205 0.49515584729558076 0.5039676858491154
-0.5343354112224752 0.9278412338169885 -0.349605487442984 0.057999577268951205 0.7347224375945774 0.22713445984751685 -0.08800377958704413 -0.9443293182646951
-0.9012197509667903 -0.13661725506343503 -0.19916833484283727 -0.5237979245916967 0.2986048829722657 -0.9166834107836155 0.16011197502022814 -0.5978049019248433
0.13226359785886416 0.16404422979364455 -0.7447925742538534 0.7668218995414404 -0.09735656688109788 0.6997806329802672 -0.16205148524446858 0.5432346652474821
00000000: b7be c207 945b c53f c05c 1725 d084 f53f
00000010: 3578 8a5b f19e e3bf ef85 a4df 4a65 c7bf
00000020: 1345 9129 2679 d93f e58e 294a 6232 e13f
00000030: 2fb1 a326 a2b0 df3f dfce 1ed7 8020 e03f
00000040: a072 8993 4619 e1bf e5f9 6319 e0b0 ed3f
00000050: dd76 c4b1 ef5f d6bf de9b 1adf 1eb2 ad3f
00000060: 4365 23a1 d882 e73f 9e7b 6bf2 bd12 cd3f
00000070: f330 406b 6a87 b6bf 173a 531e f237 eebf
00000080: 102c 9dcd cad6 ecbf 108b 4899 ac7c c1bf
00000090: e13d 4616 597e c9bf 39b0 7add f3c2 e0bf
000000a0: a9ac b2a7 571c d33f 5c3e c372 7855 edbf
000000b0: ed75 3498 8c7e c43f 68fb e4be 3721 e3bf
000000c0: aea7 a079 03ee c03f cdd5 07bd 66ff c43f
000000d0: 9d2a 973c 57d5 e7bf fe62 8c14 ce89 e83f
000000e0: 731e ce26 5cec b8bf 1ac8 a05a 9a64 e63f
000000f0: 0155 b262 1abe c4bf 8153 29aa 2d62 e13f

4.weight f8 [8]
1.481681528830511 0.7310242578117248 0.8183778903051853 0.8570574590335303 1.159658650074685 1.031629218743123 1.5274541026841362 0.9902140532586476
00000000: 14a1 d6b0 f7b4 f73f fa49 fcfb 8c64 e73f
00000010: fa2a 54d4 2630 ea3f 9ef0 aac3 036d eb3f
00000020: 2c82 893a f68d f23f 8d98 c1a3 8d81 f03f
00000030: d3b5 92b6 7370 f83f c422 d961 d5af ef3f

4.bias f8 [8]
0.7814664283815868 0.10230815813403933 0.7493645659681724 0.33522359129271184 -0.03938119938766483 -0.46913506140339334 0.1820380603394082 0.43746432919955297
00000000: 5544 1ae2 c501 e93f d5b8 4c11 de30 ba3f
00000010: 45aa f365 cbfa e73f a2ca 5ca6 4d74 d53f
00000020: 5101 e5c6 c529 a4bf 149c 8810 4f06 debf
00000030: f57b e4ed 054d c73f bb08 c562 6aff db3f

4.running_mean f8 [8]
0.465856699044976 0.9028274892685949 0.31780521571190806 -0.2692355879685313 -0.6502549373828366 -0.7414701875055348 0.22226038084979874 0.6247460273604223
00000000: ed52 c19d 98d0 dd3f 39d4 8a79 f6e3 ec3f
00000010: 95c6 feaf eb56 d43f 88a0 4fe7 273b d1bf
00000020: e0e5 4371 e3ce e4bf c572 c9af 1fba e7bf
00000030: 5123 7935 0773 cc3f b734 7a61 ebfd e33f

4.running_var f8 [8]
1.1042136332932388 0.1770412346072997 0.4753154627168117 0.6379266458311033 0.28998325139790937 0.36131678993462124 0.8229337365862501 0.24174270636496353
00000000: 34ab 2cea dbaa f13f bc45 5784 49a9 c63f
00000010: 50b7 e98b 916b de3f 16ee 2224 e569 e43f
00000020: b612 49e9 158f d23f 20f4 1075 d01f d73f
00000030: 7c37 ad21 7955 ea3f 8828 f1cc 6cf1 ce3f

6.weight f8 [15, 8]
0.46502864686166734 0.10790665837943772 0.3040340980652399 0.371340161158919 0.26652259869502853 -0.13778354141910865 0.9778049856218505 0.28586853553832936
0.09198241502857907 -0.6533603365106189 0.284972646043384 -1.3869828095785406 0.4642749161024178 0.2406069539764746 -0.03757163393233299 -0.12468275759065839
-0.49533788729808903 -0.13832817552165227 -0.024736412211841665 0.09828467052124121 0.4934704911718795 0.014252674106991017 1.258672176118455 0.6606059594849213
0.12288608432446536 0.4901960489606554 0.004604743179610928 0.49087180374008094 -1.0198761024389305 -0.12248810368530771 -0.10248331439727186 0.7500772853345172
0.2907018682600182 -0.7490892346406052 0.2657153671192748 0.3457812549230053 -0.521564571908406 -0.7498250705096237 0.5690042139741219 0.26948360008922045
0.625025844305513 -0.1670524363657007 -0.4696217058004743 -0.3706676268546293 0.23240433544942943 0.42054655858994855 -0.9498035308284906 0.020425304785857346
1.0270313021491517 -0.3601723532464974 -0.2985838621386336 -0.03005668395894297 0.10845944930281581 0.5278314297195305 0.7636492479969454 -0.13688526988659128
-0.71044516019366 0.4840753338443411 0.1508861774432506 -0.17219019475215824 -0.5982063241048545 -0.5239436313303775 0.3825882370536733 -0.6601201539662349
0.20662413614661235 0.27295956736750704 0.7626942996926556 -0.3751813143822521 -0.4127466057891318 -0.948996508884248 0.005676911364508744 0.3720267948379499
-0.5254704976541296 0.07016572924405699 0.5106511732788238 -0.21634453059322017 -2.177629223425776 0.402695660192203 0.2225341245820324 0.41416308398201035
0.7312907993747483 -0.19033926262458412 -0.6472158465623469 -0.10151090468182918 -0.2895265795802523 0.4432632348635928 0.38296695513277756 -0.6803421537160167
-0.6747298240827835 0.8638640558620603 0.5665270466904776 -0.2596476165607114 0.09957338075646299 -0.4503320668394752 -0.38546180870797986 -0.39011859745335536
-0.8387463846381573 -0.0027872320644302794 0.08487818989517566 0.43728957782937256 0.003640244083573338 -0.18189546233716877 -0.6504011422585168 -0.346915309770581
-0.26503479348155734 -0.47804205697541713 0.6825727071786369 0.20377877707587413 0.7419974543461502 0.5923110590910188 -0.048272788797401094 -0.40456604059490897
0.6900389559994459 -0.24970259918905266 0.6175996653064062 -0.6048526200033068 0.42168633940694794 0.4378099220549175 -0.3467451866328985 0.3458770435262961
00000000: ec55 7e83 07c3 dd3f f2a4 c250 c59f bb3f
00000010: adc7 036f 4b75 d33f 7e9c f785 09c4 d73f
00000020: ab90 42cd b40e d13f a83b 291e e4a2 c1bf
00000030: 3692 63ae 2d4a ef3f 26ec c58a ab4b d23f
00000040: 30d7 5ad8 288c b73f 1a22 baef 53e8 e4bf
00000050: e2b2 c0e8 fd3c d23f 7f10 f4e2 1431 f6bf
00000060: 74d5 4023 aeb6 dd3f 0973 426b 35cc ce3f
00000070: 7149 fed5 963c a3bf f01a 3a8e 35eb bfbf
00000080: ca8f 9aae 9db3 dfbf 4e8c fdd6 bcb4 c1bf
00000090: 4785 e185 8054 99bf de3c 9625 2f29 b93f
000000a0: 31f4 4741 0595 df3f ee4e 5c89 8130 8d3f
000000b0: cd05 8d6f 8523 f43f 59f9 f01b af23 e53f
000000c0: 999c 4e61 7675 bf3f 0486 ba3f 5f5f df3f
000000d0: 9c78 ce55 6cdc 723f 3fe6 e591 716a df3f
000000e0: 8927 9f9a 6951 f0bf 683a 7a5f 615b bfbf
000000f0: efd2 b8b3 583c babf aa7e 3f14 a200 e83f
00000100: 3406 4402 dc9a d23f 6f25 92fc 89f8 e7bf
00000110: 529a f406 7b01 d13f 95b4 5db3 4721 d63f
00000120: bb29 632f a8b0 e0bf 4ae9 7125 91fe e7bf
00000130: e3c2 4953 4835 e23f 4442 4c24 383f d13f
00000140: 8c4d 0e33 3600 e43f f932 7467 f961 c5bf
00000150: c3e7 f932 480e debf 3ab3 c1b5 04b9 d7bf
00000160: d119 1ade 6cbf cd3f 13b5 e51c 3cea da3f
00000170: 0714 d15f ca64 eebf fdac 4300 5fea 943f
00000180: b32e eb5f b86e f03f 017e 8757 100d d7bf
00000190: 67ec bf7c ff1b d3bf 15fc 84ea 2dc7 9ebf
000001a0: a8a0 b29b ffc3 bb3f 2348 0ebd fee3 e03f
000001b0: 4661 388c d06f e83f 12c8 bbde 7485 c1bf
000001c0: 9743 147d f7bb e6bf bc59 ea1b 17fb de3f
000001d0: 70c3 c4fe 3c50 c33f 8881 930b 540a c6bf
000001e0: a24d c996 8124 e3bf d15d 306f 25c4 e0bf
000001f0: 68b5 7e5f 537c d83f 14e5 164d b41f e5bf
00000200: 902f a8e1 a872 ca3f f251 be67 2b78 d13f
00000210: 8ad1 40e0 fd67 e83f 6ee4 d57c f802 d8bf
00000220: 8c8e 59bd 706a dabf f2a1 35ed 2d5e eebf
00000230: ea18 724a ac40 773f fd23 4479 49cf d73f
00000240: 9efe 4d81 a7d0 e0bf 2339 6798 61f6 b13f
00000250: c3b0 1c21 4157 e03f 3a7e c875 2db1 cbbf
00000260: b26b cbde c86b 01c0 a510 b104 c4c5 d93f
00000270: e572 a989 ff7b cc3f 7572 3ae1 a581 da3f
00000280: 89c4 65f6 bb66 e73f 2005 0f76 095d c8bf
00000290: 0306 ce01 feb5 e4bf 7dbb cb5f 9efc b9bf
000002a0: daac a77d 9a87 d2bf f587 50c2 6c5e dc3f
000002b0: 5a9d efd4 8782 d83f ab9d 89e8 5cc5 e5bf
000002c0: d048 0200 6397 e5bf 48c2 833b c6a4 eb3f
000002d0: ddb8 3a54 fd20 e23f e534 6709 119e d0bf
000002e0: b4b2 e61d a47d b93f b799 da96 3dd2 dcbf
000002f0: 7e7f 9001 68ab d8bf 3fe8 67fe b3f7 d8bf
00000300: 8817 75a8 02d7 eabf 9cd6 04d2 3fd5 66bf
00000310: 3553 beb9 93ba b53f cf29 ea6c 8dfc db3f
00000320: 139d 3a29 25d2 6d3f 4bb4 03bb 5948 c7bf
00000330: 0201 690e 16d0 e4bf 1391 7c45 dc33 d6bf
00000340: b88b 937e 54f6 d0bf 689b 34b6 3d98 debf
00000350: 882e cfb7 a2d7 e53f d172 9447 6c15 ca3f
00000360: 1539 0472 71be e73f 905c 7b52 36f4 e23f
00000370: c7d5 5702 36b7 a8bf 9459 5bf6 68e4 d9bf
00000380: ad79 9f93 cc14 e63f 6f20 9f38 41f6 cfbf
00000390: b45e 905f 60c3 e33f 410d bae1 f35a e3bf
000003a0: 1d0f 3bb3 e8fc da3f 81c5 45e8 1305 dc3f
000003b0: cb8e 28b9 1231 d6bf b07c 9877 d922 d63f

7.weight f8 [15]
0.843609079194089 2.086248966066172 0.7681151438571675 0.8020695228955022 1.0863960580360341 0.8284455736578886 0.767562674825721 1.4752010136911595
1.221378249008664 1.142428124301877 0.736917897066322 0.6799595437057349 1.072007784928618 0.8248378943858107 1.127426984409701
00000000: c5e9 b777 d8fe ea3f 4f8b 444c a3b0 0040
00000010: 4db9 cd35 6694 e83f 4e8b 3eb4 8daa e93f
00000020: 134a 3cd5 e061 f13f 080d ac4a a082 ea3f
00000030: 5537 4099 df8f e83f f445 cd60 6c9a f73f
00000040: 789b 38eb c38a f33f d483 7eb6 6247 f23f
00000050: 1395 77d7 d494 e73f 0037 5a84 3ac2 e53f
00000060: 8b36 95a2 f126 f13f 136f 9c70 1265 ea3f
00000070: 5bae aae0 f009 f23f

7.bias f8 [15]
-0.09506447378588205 -0.8820447985555252 0.7044340789494661 -0.25291666179796857 0.12304593599887607 0.07327604422091234 -0.29016351241051963 0.1473104792778475
0.4947201598688078 -1.087180107936369 0.07311138374442586 0.5495627001733293 -0.26347104057270104 0.12970542027670004 0.046032433332655706
00000000: ebfb eb35 2556 b8bf 77e4 6c03 b639 ecbf
00000010: acd3 6856 b98a e63f 044a c25d c92f d0bf
00000020: 8358 053f f07f bf3f 4d52 8205 38c2 b23f
00000030: 4aec 12fb 0992 d2bf d99f 6ddd 11db c23f
00000040: 2cbd d3be 7ea9 df3f df2c 07f8 1665 f1bf
00000050: 1aca 257a 6db7 b23f a311 0b84 0496 e13f
00000060: 55fb aca3 b5dc d0bf ffe6 19ed 2f9a c03f
00000070: 2e28 7027 9091 a73f

7.running_mean f8 [15]
1.8150471871548954 -0.4130265337015839 0.7708997335403758 0.6396367862251658 0.6980479914163362 -0.33268407848980874 1.2887440006690085 -1.0939867524483888
0.719492186352419 -0.31719159927988727 -0.05477585758725605 -0.6884989120249968 -1.3223180922934485 0.3108743908529291 1.2001528846724887
00000000: de6e 58eb 6e0a fd3f 133a a8d7 066f dabf
00000010: 06a2 01eb 35ab e83f edfa c490 e777 e43f
00000020: 2e7e c5bd 6856 e63f 3edf 4029 b24a d5bf
00000030: 2da2 7c07 b29e f43f 875e c040 f880 f1bf
00000040: c38e 437a 1406 e73f 8046 5efe dd4c d4bf
00000050: 362e e5c9 940b acbf 7f53 cfde 2e08 e6bf
00000060: 98f3 1404 3728 f5bf e624 78b3 5de5 d33f
00000070: f6e4 dd82 d333 f33f

7.running_var f8 [15]
1.1934668642923385 1.4197682118837525 0.9216792512158851 0.6140204319396222 1.5032323512273034 0.3779943027412726 0.5505617502061589 0.5617698670397172
1.286177876046353 1.0810275032076222 0.21418332220842584 0.3962939935892878 0.9065442891825088 0.2654705340942533 0.75106873241088
00000000: 9aec efb5 7018 f33f cf0e 5fdf 5eb7 f63f
00000010: c4f7 2b7c 657e ed3f 0335 482d 0ea6 e33f
00000020: 9ef7 ac5d 3d0d f83f 1747 1604 0f31 d83f
00000030: 130c f2ac 339e e13f 170b dacc 04fa e13f
00000040: 4353 a740 2f94 f43f 01a7 c57e e34b f13f
00000050: cced 1dee 5b6a cb3f 694d 847b e15c d93f
00000060: 1c43 4d2b 6902 ed3f 5722 7f1f 78fd d03f
00000070: cc17 584b c108 e83f

9.weight f8 [15, 15]
-0.41846873303819365 0.2867606477690912 -0.005116948192310062 0.5840041318054163 -0.010102118796499061 -0.07108186371117219 0.02930739762660021 0.22559241341418693
-0.02050560944033323 -0.22584128914531423 -0.5087229829766908 -1.319819425394022 0.0009445490968475758 -1.7377101757462743 -0.17993148883641935 -0.02673216092920021
-0.14812468147435137 0.2583490404720237 -0.11480749695645714 0.18508917090714255 0.3873355868978072 -0.6611547545653704 -2.083209391112134 0.6329480877065874
-0.6814976322455233 0.7180169538527091 0.11158015363494249 -0.40978281864408456 0.48502277961943574 -0.04464582371478163 -0.6384077029895546 0.023622354809793012
0.4837464278503436 0.14668184152820984 0.24996837901072758 0.5579924076832384 0.2517903325338156 -0.04612694440560265 0.5233015352910715 -0.8443033642523332
0.10903373920745238 -0.28828406112159966 -1.2715584693145547 0.34986444763104524 -0.3666855041618451 0.4145972441271005 -0.95734879253313 -0.006181272245537851
-0.1629495904387342 -0.8276121372459404 1.1308616232673305 0.0016923328639374398 -1.0138928531218263 0.3105137335087547 -0.884251729958252 -0.058612204108406535
0.06235261985928603 -0.3396771980612137 0.10570329894938109 -0.13238998124772336 -0.2551579709669174 -0.06112679421264971 -0.04506917292823302 0.08816875739213996
-0.3003644973006717 0.12024700959139048 -0.40414510235829587 -2.717200397977856 0.7262441623507478 -0.32707948507684986 0.35726099347752005 -0.5181817430792512
-0.3881951676221652 0.3099744188770016 -0.0067724809778483865 0.19098956722029173 -0.07120170565436265 -0.10506614919558226 -0.03571970025291972 -0.24637170531979144
-0.0997586897219673 -0.25278719394467414 0.022374404619079115 0.16522991379599816 -4.620360486064044 -0.047188736512990034 -0.11106730832284235 -0.04055092449849583
-0.18546426255921222 -0.06832249515447227 0.14562587535313243 -4.922404526270115 0.024248721186859196 -0.12440547432778819 0.05087326437639035 0.07238573849863253
0.22396745739899315 0.018295883122543894 -0.058825603797341065 -0.0725997256754788 -0.35614386234751017 0.025420940516268652 -0.0348480693942973 -0.17283541467824226
-0.044991305846706575 -0.16373995622491125 0.09464069820188398 0.15422530227727105 -0.25007448453719144 0.16387198537630493 -0.13858201585487875 0.5920299659482804
-0.1513055934571917 -0.0013971833441530897 0.11831724641717188 -0.004068087536126326 0.2204483239344382 0.3620482629789756 -0.3134003718569931 -3.399585961333725
-0.12905551363888418 -0.030540855537830074 -0.5080538549894665 0.04504466695185746 0.018655825584950585 1.406590697226311 0.4615817926723494 0.22866297484394713
0.7304690370147202 -0.1802373594879517 -0.3167398730750953 0.005165260101962207 1.2605963800792508 0.05357481573234597 -0.8750635111874464 0.6616801952837367
-1.3757938685491673 -0.9223342240868974 -0.6451715412124125 -0.12950850742332568 -0.5294387057759273 -0.11215917357409676 -0.27132745463904734 -0.2809203144362409
0.22878157019149448 0.15554497150036364 -0.23156714256782943 -0.23211623046737567 -0.04017529909280238 -0.032433515158578355 -0.18070453014384985 -1.5422867117061176
-0.6459779857261069 0.42976762404267016 0.6014209307986392 -0.010973094396607893 0.2755541210279684 -0.44795937213043574 -0.8326627953137906 0.930559518668485
-0.4178182837518381 -0.24276670005561143 -0.47199357504248685 0.02027850447708086 0.08092039499102015 0.045791013002265644 0.24732414014932108 -0.8038557943812132
0.13840661910810892 -0.8148645477191498 0.4282011515588772 0.0017849499369055174 -0.41677310787004895 0.13012885560684498 1.0977506107918722 -0.18827937628929747
-0.262218225915385 -0.18670117818041146 -0.851306879159527 -0.38664138466320924 0.7642808278860996 0.20890065907781954 -0.671832316599608 -0.04299465424854133
0.20488491072520268 -0.41533767906872127 -1.0433861894006549 -0.34188782158361064 -0.203589321346606 0.42448863623132277 0.2525762257846761 0.31626332043978966
0.5559776723900485 0.05973517433393855 0.49251659904404593 -0.2165783046281552 0.23992903529138904 -0.5525282431544598 0.19209147802055324 -0.6952224217359276
-0.269600029490739 -0.09067137215135697 -1.563691595973221 0.5549247570656033 0.4644397054788217 -0.11187219970447759 -0.729882804025231 -0.0703182431492604
-0.2011034880757163 0.1340072925681385 -0.2937580418917632 0.25831616065170154 -0.4868368380737532 0.18704073016030734 -0.6404420848414664 -0.27180428327425477
-0.04501032447090647 -1.7513257202184371 0.5262997256377479 0.479303481864169 -0.054708956622690624 -0.8197376913990229 -0.11412454401863266 -0.0933502245347087
0.14065040330071515
00000000: d20b b314 31c8 dabf 65ac fc54 495a d23f
00000010: bac1 4252 82f5 74bf 0ea9 da6e 29b0 e23f
00000020: d466 cf6e 6bb0 84bf 376c fac7 6b32 b2bf
00000030: eb34 5929 c202 9e3f 7979 eb52 36e0 cc3f
00000040: 6a1e b927 6cff 94bf ed98 7b0b 5ee8 ccbf
00000050: 7078 d36b 7547 e0bf dc15 4bf9 fa1d f5bf
00000060: 0c9f 7ebd 73f3 4e3f 481b 6c2f a9cd fbbf
00000070: 6658 09ba fe07 c7bf 8df0 c4f3 ac5f 9bbf
00000080: 32d5 54e3 bff5 c2bf cdf0 f169 ca88 d03f
00000090: 7c7b c32c 0664 bdbf 4ae9 f17f 00b1 c73f
000000a0: 2465 9333 1bca d83f 6480 0e04 2e28 e5bf
000000b0: 9e5f 6caf 69aa 00c0 3e7f 1859 1c41 e43f
000000c0: 7c78 591f d4ce e5bf 6fab d8b0 fef9 e63f
000000d0: dba6 be56 8490 bc3f ab7f 22b7 e139 dabf
000000e0: 94f3 11fc 9c0a df3f 6d14 8441 d1db a6bf
000000f0: 0959 bbfd d56d e4bf 5d45 7365 7530 983f
00000100: a023 cb93 b3f5 de3f 80ee 2378 78c6 c23f
00000110: 7d4e 71be f6fe cf3f 4d4e cde4 12db e13f
00000120: 05a1 eb32 551d d03f 7679 5f6b f39d a7bf
00000130: 1cb2 80dc e2be e03f c0ba 2b7d 8804 ebbf
00000140: 667d 0e98 a2e9 bb3f e66b 9efd 3e73 d2bf
00000150: 7b86 8ab1 4d58 f4bf bff0 26da 2d64 d63f
00000160: a0b6 127a c677 d7bf 7168 22e1 c288 da3f
00000170: ad6f 59ef 99a2 eebf dbaf 46a2 8851 79bf
00000180: d25c ea3c 88db c4bf aace e772 cc7b eabf
00000190: 28c1 835b 0218 f23f fedd 7d93 28ba 5b3f
000001a0: eae6 5cb6 e738 f0bf e540 98fe 74df d33f
000001b0: 8844 b348 ca4b ecbf e48b 9537 6b02 aebf
000001c0: d829 3bbe aeec af3f 41ab 376e 45bd d5bf
000001d0: 8d20 1114 5f0f bb3f 8f75 e3a7 27f2 c0bf
000001e0: d476 2719 8254 d0bf 47f5 1adc 024c afbf
000001f0: d6ad 917f 4e13 a7bf 1338 8749 3a92 b63f
00000200: 9e4b 3203 2c39 d3bf aa06 a30d 82c8 be3f
00000210: c1ea 5d6b 83dd d9bf d2f1 ef8f d3bc 05c0
00000220: d4a2 c665 643d e73f eb3e e6ca deee d4bf
00000230: b2d5 c736 5ddd d63f ec1b fde0 f194 e0bf
00000240: 8ac1 598b 30d8 d8bf ca17 ebf1 9ed6 d33f
00000250: c493 0005 76bd 7bbf f14e 8b9c 5872 c83f
00000260: b674 3465 463a b2bf d330 b67a 9de5 babf
00000270: 6284 d140 da49 a2bf 730e 81a8 1b89 cfbf
00000280: 4e00 d915 c989 b9bf 4fc2 b556 aa2d d0bf
00000290: 5af8 6ce0 50e9 963f 2490 09fa 4026 c53f
000002a0: c080 7dc7 3f7b 12c0 4e2e 2040 1f29 a8bf
000002b0: 4dbf e638 e86e bcbf 5e53 163d 17c3 a4bf
000002c0: a060 22ff 4abd c7bf fd02 4542 957d b1bf
000002d0: ece9 0b62 dea3 c23f d10c e8cf 8ab0 13c0
000002e0: 8899 de21 a8d4 983f 4b64 ae83 09d9 bfbf
000002f0: 0a87 797d 0f0c aa3f 3a66 8c2b df87 b23f
00000300: 38cf 7234 f7aa cc3f b5ab a6ee 27bc 923f
00000310: b53d f4b8 631e aebf 6989 7947 e595 b2bf
00000320: 2009 5da0 0fcb d6bf c38e 9a70 f207 9a3f
00000330: 5026 c12c 9bd7 a1bf 681b d18a 781f c6bf
00000340: 788f 6eb6 1909 a7bf 5d69 844e 6ef5 c4bf
00000350: 84cf a56f 5f3a b83f 6090 bf9a a7bd c33f
00000360: d1ae 2969 3801 d0bf 32fe f5d8 c1f9 c43f
00000370: e189 f434 0ebd c1bf d6fe bfd3 e8f1 e23f
00000380: 82dd cc4f fb5d c3bf 7900 4231 36e4 56bf
00000390: 671e eaff 094a be3f 1581 ccee b2a9 70bf
000003a0: 92d2 e092 a637 cc3f 275f 447a cc2b d73f
000003b0: 8485 eb6e c00e d4bf dbf3 de1f 5a32 0bc0
000003c0: 5647 391d e484 c0bf eb48 e81e 1a46 9fbf
000003d0: e32a 7928 fa41 e0bf abba d536 1810 a73f
000003e0: 1ba8 1143 831a 933f 141e 373f 6581 f63f
000003f0: 193c fd5b 8e8a dd3f ab62 610f d444 cd3f
00000400: b600 179a 0060 e73f ab52 428e 0412 c7bf
00000410: 2697 0c51 7745 d4bf b084 69f3 2a28 753f
00000420: 8657 1e1c 672b f43f 8a57 eb82 286e ab3f
00000430: eb22 4f31 8500 ecbf 03f2 e4f1 7b2c e53f
00000440: c34b 776e 4003 f6bf 8de9 0d10 c383 edbf
00000450: bb26 bac9 3ea5 e4bf 35ee f719 bc93 c0bf
00000460: e069 d170 29f1 e0bf 4f77 72ae 76b6 bcbf
00000470: db9f 0bd4 6d5d d1bf c448 d232 99fa d1bf
00000480: 1c33 f3e8 b648 cd3f 415e d3ca e5e8 c33f
00000490: 7918 14fc fda3 cdbf ea34 5d11 fcb5 cdbf
000004a0: 61d4 6b57 db91 a4bf 1a03 cd2d 209b a0bf
000004b0: 167b 9a77 5321 c7bf 9b54 bdd4 34ad f8bf
000004c0: 8d25 5406 daab e4bf 2325 8910 5081 db3f
000004d0: 011f 9d1b d73e e33f 4b08 8ecc 0f79 86bf
000004e0: 2cf6 85c0 ada2 d13f 9f29 4fc9 5dab dcbf
000004f0: 5eff 4e72 2ca5 eabf 6234 75c1 24c7 ed3f
00000500: b9a3 18e6 88bd dabf 05fa a5ae fa12 cfbf
00000510: d0b1 2e8a 2435 debf 13d5 2966 e3c3 943f
00000520: 7bda 10f2 32b7 b43f 2344 976e eb71 a73f
00000530: 96f0 b942 51a8 cf3f 3c28 72c9 2fb9 e9bf
00000540: cc43 4fdf 4eb7 c13f 5ef4 e3d0 5e13 eabf
00000550: c383 83cd a567 db3f b70a a866 9f3e 5d3f
00000560: 70dd 091d 69ac dabf 8174 8cf5 0fa8 c03f
00000570: ea3d c8f1 6290 f13f 6c3f d6e1 8919 c8bf
00000580: a230 2ef4 2ec8 d0bf ad6b 34ff d2e5 c7bf
00000590: 2333 9bec e73d ebbf 2727 9a81 bbbe d8bf
000005a0: 1961 1711 fd74 e83f f910 6dbd 41bd ca3f
000005b0: 971e 867c a67f e5bf c1f5 cc33 6503 a6bf
000005c0: a11a 8133 ab39 ca3f 8f63 197d e494 dabf
000005d0: 972e 89b7 b5b1 f0bf ee8b 2675 7de1 d5bf
000005e0: 18cf 7f02 370f cabf 6dc7 8862 d22a db3f
000005f0: c681 5f79 352a d03f 22a6 8d82 a83d d43f
00000600: 3416 07b0 91ca e13f a9c8 5ed8 9b95 ae3f
00000610: 9567 6857 6485 df3f ac55 b37f d6b8 cbbf
00000620: f2fa f79f feb5 ce3f 28df ceb5 4fae e1bf
00000630: 5b23 f81b 7496 c83f c3a7 9917 433f e6bf
00000640: 7c74 6a7b 2041 d1bf 6dd2 1232 3d36 b7bf
00000650: aec2 9b7a e104 f9bf e4cc 6a90 f1c1 e13f
00000660: d1b4 7f50 61b9 dd3f b0f3 0f0f a8a3 bcbf
00000670: c66f a62e 335b e7bf 5164 a35a 6000 b2bf
00000680: f7c7 3254 c2bd c9bf 6db9 80a5 2627 c13f
00000690: fd2c b787 eecc d2bf f1bf 8181 4088 d03f
000006a0: c6f2 80b2 5528 dfbf 4d7c 875d f3f0 c73f
000006b0: 7709 2c66 807e e4bf 5ad7 e4ca 3d65 d1bf
000006c0: f076 2bdf 970b a7bf 97b5 4f1e 6e05 fcbf
000006d0: b740 b085 72d7 e03f 53cb dd82 e8ac de3f
000006e0: 4448 fcf6 cf02 acbf 5c6f fb89 4a3b eabf
000006f0: dd1e 3b20 4437 bdbf a469 73e1 cce5 b7bf
00000700: 9642 2c19 d500 c23f

10.weight f8 [15]
6.54770914894812 12.886057982692245 7.379173954074259 7.347477270561407 11.091398219253255 5.87689404517442 7.6193601947466725 12.622812608219617
8.49460563298553 7.601388576603347 6.699604555820175 5.7636539228193975 6.352839865636701 9.185469777086285 10.366176793795562
00000000: 05cf c9aa da30 1a40 bd0b 5464 a9c5 2940
00000010: cef9 502d 4684 1d40 89a8 e414 d163 1d40
00000020: f335 55bf cb2e 2640 3b53 3883 f081 1740
00000030: 4c86 138f 397a 1e40 efad 4f4b e13e 2940
00000040: 332e 14f3 3cfd 2040 27cc 3268 d267 1e40
00000050: 6285 fd22 65cc 1a40 bce2 3f4b fb0d 1740
00000060: e689 8eda 4e69 1940 c9f6 05e5 f55e 2240
00000070: e9cf 5386 7bbb 2440

10.bias f8 [15]
-5.981968838969215 -8.703311672692232 -5.628204164586715 -7.837445324452054 -7.627803600412105 -2.3495414995315116 -5.825119751675073 -10.535152835623528
-13.88961651791659 -9.81697415655593 -9.754951172675932 -12.667126915024058 -6.937067358903926 -6.7245344031133225 -7.452899243403412
00000000: 6741 443d 89ed 17c0 6537 b277 1868 21c0
00000010: 9b71 d8f3 4783 16c0 b7d6 6244 8b59 1fc0
00000020: fd52 70f2 de82 1ec0 40a9 e869 dccb 02c0
00000030: 8ee9 3231 ec4c 17c0 bcba 6e8d ff11 25c0
00000040: c6dd f4d0 7bc7 2bc0 782b c86f 4aa2 23c0
00000050: a170 c9f5 8882 23c0 919e b4a8 9155 29c0
00000060: da90 f295 8ebf 1bc0 5ecb b858 ece5 1ac0
00000070: 0434 bbd1 c4cf 1dc0

10.running_mean f8 [15]
-1.6060563190258572 -0.3609436945442647 0.3181619427486576 -0.5616793387033275 -1.747052460486335 -0.5706124021376036 -0.546350447513155 -1.5660671188522926
0.8656311830798326 -1.637670257845295 -1.5420218863770623 -1.6881494002436839 -0.1644151334653734 -1.9549433590988146 -2.0495772936782406
00000000: d100 5c1c 68b2 f9bf 43f6 f094 b319 d7bf
00000010: defc bbe8 c35c d43f f93a d2f2 46f9 e1bf
00000020: 56f6 e247 edf3 fbbf aeef bbf0 7442 e2bf
00000030: b92a 07ef b37b e1bf 13fc 2c65 9c0e f9bf
00000040: af38 b72a 40b3 eb3f 273d 71ba e533 fabf
00000050: 974a 3b24 1fac f8bf 2df0 0cf2 a802 fbbf
00000060: b0c2 991a 8e0b c5bf e7c9 0db0 7247 ffbf
00000070: 21c7 b7c7 8865 00c0

10.running_var f8 [15]
1.3032364787267325 5.58287982482926 0.905052593685101 1.397552496104205 10.064795753669275 0.674364179970908 0.4738211300642627 4.155999898532745
1.2077650038864478 0.40704180920400546 0.6656608623252191 0.3058843814117037 0.22119158740141487 3.63676122970313 4.680810349655433
00000000: 465e 717e 0eda f43f 3d8f e472 de54 1640
00000010: 1433 61db 30f6 ec3f 245f 9301 605c f63f
00000020: c1db b5e8 2c21 2440 7f34 5230 6494 e53f
00000030: c3e7 71dc 1553 de3f 8482 f96f be9f 1040
00000040: 3421 8f65 0153 f33f 2eb2 a816 f90c da3f
00000050: 483f 3d02 184d e53f 2e4f a115 9c93 d33f
00000060: 240b 0585 0150 cc3f 4a7c 8745 1618 0d40
00000070: 9231 2a59 26b9 1240
