neuronNetwork/model/Net_encoder_para.pkl (torch, 11311 bytes, 20 tensors)

0.weight f8 [15, 15]
00000000: e5ee 1690 034d c7bf e620 1672 b670 b03f
00000010: 60ce f86f 39b5 adbf c9cd 23eb 2f2b a43f
00000020: 167c 7d83 2428 873f a557 3fc8 1b8e a13f
00000030: 0ebc 9067 185b 753f 3145 aaff e6b7 c6bf
00000040: 4d34 b9d2 7562 ddbf a02b 4f42 61ed f13f
00000050: 55e5 0e45 7ec0 d93f 43cc 7c1a 632f ed3f
00000060: 58ff fd8d f7e5 9ebf 8315 9324 1c71 ac3f
00000070: 7541 5189 e415 bb3f 0fef 7f5c 8588 d33f
00000080: c63b 779a 65ea ccbf de6a 4016 9e34 9abf
00000090: 4a75 f024 8df2 afbf f6f0 7e0f 2f78 82bf
000000a0: 8c9e 6531 9b3c 823f 4ecf cc16 8d7b a13f
000000b0: dd0f 2285 6be3 b13f 5d2b 9907 bc15 c7bf
000000c0: f51b 03cd 190c a8bf bdc3 012a a4e0 f13f
000000d0: 6544 db0c 3733 ef3f 4379 b6f3 8e1f b5bf
000000e0: 9286 f8dd c0d3 bf3f f9f3 d71c 03cf 95bf
000000f0: 070e e935 4b93 8abf 4c73 b8b8 9eb4 bcbf
00000100: 7c18 db45 ca68 b3bf d661 11a2 dce0 833f
00000110: e5cb bb75 740a afbf 22c2 81f2 aba7 b7bf
00000120: 01d7 5244 80f5 c3bf 1415 eae3 a8d0 c53f
00000130: 4c97 b394 de0e fb3f e30e c13f 4166 cdbf
00000140: 90d4 4283 9fda cfbf bf4a bfce 2e26 e6bf
00000150: 6b71 c6ec f9aa d43f 5c83 652a f08e 853f
00000160: 0d54 8aba f293 c2bf 5d4c 23fd a5c4 b4bf
00000170: afc7 db6b ad7c c2bf 5776 a582 551b 79bf
00000180: 7a9a 7ddb c617 73bf 6d13 1751 73a8 9cbf
00000190: 07c6 59b7 aa4a c7bf 887f d8ba 1fcf 0640
000001a0: 9749 eff9 b61a b23f c21f a6d2 2add c1bf
000001b0: 13ff 4a31 a3b2 d4bf e438 2296 67a6 d1bf
000001c0: 08d5 0d5d eff5 f5bf d244 3db1 2c41 c2bf
000001d0: e457 c6df be2b 9cbf 358c 1667 6319 a0bf
000001e0: a5ce 40fd 1fed cdbf e992 d36b da32 db3f
000001f0: 356f 6eac aeae 9e3f 4489 8766 69a6 0040
00000200: 321a 81ff 9133 953f 5105 b4a0 cfba b5bf
00000210: 6b74 37ed 1531 c33f 881b 857a 1399 c2bf
00000220: 2255 e97c 99d4 d9bf 99ce 1b23 c9ce c8bf
00000230: 2248 4f3f 154d d4bf da66 9a13 02c5 edbf
00000240: 4da3 5e9d df68 bdbf 464e ef2c 0c22 bbbf
00000250: d4d5 942c ee9d 853f 20f5 8b54 c46b a03f
00000260: 33c0 dc01 f369 d1bf 59e2 f6d0 49ce c5bf
00000270: 16c3 b340 76bf 3abf 4e6e 7d78 4ea0 c2bf
00000280: dafe 6afe 6efb 74bf 3a68 b8d8 31a6 d93f
00000290: cfbf c037 f088 fc3f 2369 0dc9 a505 bb3f
000002a0: 189c 4238 4b2c 7c3f 7c28 9482 f08a b03f
000002b0: 05bf 3919 9f30 f43f 68bd d4c8 3806 b1bf
000002c0: a2b3 419a 72b5 bebf ddfe 98d9 4b47 c2bf
000002d0: f954 e6fd 2d4f a2bf de5c a806 e8c0 9b3f
000002e0: 1a91 d477 f39f 623f 6780 7b72 2af6 b33f
000002f0: 17fa a3ef ac4a b13f 8c92 b66c 389a 77bf
00000300: 97c0 8575 21b6 ba3f 687f a7ca f301 85bf
00000310: 4e98 3371 61de c63f 8af9 7244 390e aa3f
00000320: 28d5 1bb2 8605 b9bf c4ee 3384 932d f3bf
00000330: d016 5e93 d1bf f43f a705 ced1 1639 a83f
00000340: 3396 ca41 b93e 93bf 788d 36c5 4f63 6abf
00000350: d6d4 b92a 3a87 c7bf 52ee d729 843b ddbf
00000360: 0c19 4da7 1bf5 b9bf 40f9 96e9 0e75 bbbf
00000370: a262 07b0 9db2 f4bf 2fa4 d715 6f5f 56bf
00000380: a603 919a ba78 b93f de80 37ca 3439 ecbf
00000390: 5d3f 22a4 7182 bcbf 732b 3324 0f6e d3bf
000003a0: b711 f9c8 531e e7bf 1c5d 7d96 61ca a2bf
000003b0: 2194 1a4e 9806 93bf 5e59 2587 6380 b2bf
000003c0: 23da 0553 aa08 bdbf 08f1 126a c624 a8bf
000003d0: a22b 5ca9 b525 9b3f d7ac afaf c8fa c23f
000003e0: 2421 bf68 113c a63f 762d b40c 3ff6 a3bf
000003f0: c043 c8a9 d2f8 7fbf 6cb6 971f 0136 c4bf
00000400: 57db d33a 92a3 d6bf 4f2e a498 3e55 f03f
00000410: 15c1 05ef 96f1 e83f da68 3d6d e23c e73f
00000420: 7a54 5410 73c7 923f 4e6a 39d2 612d a33f
00000430: dcab 3e24 0f10 b53f ed5e 818e b0b6 d03f
00000440: a123 de4e 6e99 c43f 7804 0902 bd4d 9cbf
00000450: 0cdb c841 4eb7 b7bf 7899 bf4d b2f5 e53f
00000460: f650 6652 178d c23f 8ce7 8938 5c68 b43f
00000470: 8163 417a 13f3 cbbf 6d30 fb78 8a1d d5bf
00000480: 5872 99d5 fa01 cdbf eed9 b0ed afae 9e3f
00000490: 8854 37b9 1c13 f1bf cb77 1e1a fc9b 9dbf
000004a0: ef25 4b40 4a2c f43f 6976 63a6 eb8b f43f
000004b0: 02c6 0bc5 a71e b5bf ec28 7a9c eff0 b4bf
000004c0: eca4 ccee f923 a73f 2774 fd5e 0290 c13f
000004d0: e290 ee99 94c1 9c3f 2a29 f90c c62a 9dbf
000004e0: e574 a2db 3aec 933f f723 5593 6077 bbbf
000004f0: 14f4 339f 36bb d0bf 991a 2aef 7ee3 ef3f
00000500: 61e9 9647 ad9e eb3f a9f4 3e57 7a6e e63f
00000510: 8237 6fb1 260e 723f 55f9 e43c 4e62 943f
00000520: 2a05 85af b6ea b63f 22f8 401a 4873 f43f
00000530: b664 c7f7 3cf5 c93f 5d5d 75fa c16a f23f
00000540: fe7f 5f67 54c0 d0bf 0e88 c107 ea00 b33f
00000550: 993c 360b 11f9 ddbf 4a8f 4f6a 59e8 bebf
00000560: 66a8 31e2 4d4d c2bf f912 89bb e83e dabf
00000570: bb98 f742 7e11 b8bf 6fb7 82ab a948 cebf
00000580: 303b 5ef7 86df d23f ab9e 0350 599e d4bf
00000590: e570 cbc3 a35e c33f 4ff3 6e9a 76e6 893f
000005a0: a4d1 32f1 02fc f53f 6734 ed55 fea2 c53f
000005b0: 4f31 9111 3f07 ee3f f777 bed4 aa47 d1bf
000005c0: 0041 b80e 4688 b63f 4ac9 0901 0b35 c3bf
000005d0: c0b9 751c 0c07 c0bf 15c4 dc71 cdaf c9bf
000005e0: 1233 2b86 2b54 e2bf 329b 88e7 00a7 c2bf
000005f0: faa3 a79b bfce d5bf 9e7e 8a95 dc88 e8bf
00000600: b274 ce5f d360 d9bf 9d94 e474 faaa ca3f
00000610: d5bb e606 1bc2 ab3f dfe7 7544 55b4 70bf
00000620: b397 4313 45cc cfbf 659b 2353 187b b2bf
00000630: c0e4 6d0e 5a5a 85bf 0f29 4350 703d a73f
00000640: 45b5 b271 208c a93f 38dd 1fc7 d4e8 9f3f
00000650: e35b 249d 6ba3 b4bf 9298 e63d ba12 ba3f
00000660: 68e1 266b 6ad2 a23f 039d 98fa e5f4 d3bf
00000670: 0107 001a 82a0 f93f 2bf7 3f2c f92f e13f
00000680: 2475 d2ad 0267 a93f e9fe b144 4185 a8bf
00000690: b52b 2a55 b9e5 cabf a261 b0f6 0eff fe3f
000006a0: a235 2d8e 6430 8c3f 89e7 73a5 f0b0 c23f
000006b0: ff91 60ab f55c f03f 6c85 c8e2 840d a33f
000006c0: 1789 b009 dc70 c43f c17d 8eea ae3a d2bf
000006d0: 0e73 6e28 9c51 d6bf 9193 21a3 25dd a73f
000006e0: 1ca4 066a cb73 b5bf 229e 99e1 4f4b ecbf
000006f0: 256a b52f 766d c2bf 68a7 783c 252d c53f
00000700: 8870 23d9 06c2 d43f
-0.18203777824043424 0.06421985898316826 -0.05802325717777701 0.039391992047878306 0.011307034743081739 0.034287326998011104 0.005213828401834609 -0.17748725398681978
-0.45913453653776487 1.1204540815549322 0.40237385505641515 0.9120345609029602 -0.030174129525675525 0.055550460304895764 0.10580280640102109 0.3052075770681179
-0.22590322534821733 -0.0255913449364965 -0.06239739490431846 -0.009018294964214562 0.008904659695601745 0.0341457453090742 0.06987640381163325 -0.18035078402530305
-0.04696732165898957 1.1173440590757615 0.9750018359283216 -0.08251279306430086 0.1243248502655894 -0.021297501216384494 -0.012976253111566484 -0.11213104257371959
-0.07581772046532537 0.009706233688277981 -0.06062663972070207 -0.09240221663072437 -0.15592959724533986 0.17043028954155004 1.6911302384045994 -0.22968307126040263
-0.24885934743148086 -0.6921609914810104 0.32293556330275547 0.010526539129104222 -0.14514001949706348 -0.0811256163608944 -0.14442985312012754 -0.0061295833823727585
-0.004661347185765602 -0.027986337494229675 -0.18196615173978634 2.851134738666534 0.07072013475343507 -0.13956198964683436 -0.32340316594853497 -0.2757815328740334
-1.3725427279399032 -0.14261397032036044 -0.02751062622845514 -0.03144369729422928 -0.23379897943379038 0.42497883348396087 0.029963235163094033 2.0812557230102886
0.020704537601227986 -0.08488176034372442 0.14993547518580227 -0.14529651148242473 -0.40360104750046066 -0.19381059850967544 -0.31720477278315873 -0.9302988417504949
-0.11488149253876863 -0.10598827454605794 0.010555134521022781 0.03207219631256408 -0.2720916288553809 -0.17035792067851466 -0.0004081405356393548 -0.14551716693209688
-0.005122598237619258 0.40076872028442134 1.7834322145317747 0.10555492552285677 0.006878179385387838 0.06462004840810381 1.2618704781888834 -0.06650118735409694
-0.11995617166549136 -0.14280079007038796 -0.03576034283029545 0.027103066831924198 0.002273536227806028 0.07797494215947297 0.06754570818518633 -0.005762310417968163
0.10434159392548491 -0.010257629987733899 0.17866151835841254 0.05088976822433995 -0.09774057243688061 -1.198627010743551 1.2968307262939796 0.047310555563864036
-0.018793959274850457 -0.003221183587543027 -0.18381430708146834 -0.45675758444096914 -0.101396301598559 -0.10725491717218905 -1.2936074138762383 -0.0013655266587824335
0.09949842713923704 -0.881983180002887 -0.11136541611835811 -0.3035924771799536 -0.7224520612003776 -0.036700296039891195 -0.018579845206336047 -0.07227155732593846
-0.11341347243237769 -0.04715557141159549 0.026511038267056038 0.14827831819943668 0.043427032505464674 -0.038988085079917065 -0.007805655387088828 -0.15789808313950304
-0.3537335943687387 1.020811649565889 0.7794909161002886 0.7261821874228886 0.01833896433989366 0.037455613052504874 0.08227629313357404 0.2611504928258757
0.1609323392006248 -0.027640298127384416 -0.09264077287739897 0.6862422483944064 0.1449307586996224 0.07971741085375877 -0.21835559339049485 -0.3299280339676958
-0.22662291936548473 0.029963253862854637 -1.067166064739725 -0.028915347189119516 1.260812998911543 1.2841602801849155 -0.0824990135258972 -0.08180139131778547
0.0451963523867763 0.13720731390176974 0.02808220090413805 -0.02848348097021717 0.019455833106452842 -0.10729030224787538 -0.2614265970913163 0.9965204878979704
0.8631197355492014 0.7009860710164918 0.004408026833471969 0.019906256167126674 0.0895189455523179 1.2781449342287563 0.2027965745790305 1.1510638984235222
-0.2617388734342966 0.07423269929270779 -0.46832681746395505 -0.12073286862829238 -0.14298413796069837 -0.41008966745384573 -0.09401692519131448 -0.2365924918607862
0.29489301831283665 -0.32216484846001475 0.15132567463195482 0.012646605098660805 1.3740262433831072 0.16903666682847815 0.9383845656498496 -0.26999922538550386
0.08801687106484124 -0.1500562434262725 -0.12521506681100725 -0.2006775670975293 -0.5727746601565704 -0.14572154336311766 -0.34074392510098017 -0.7667067452166128
-0.396534770546917 0.20834284503613257 0.054215283005184446 -0.0040782290228608955 -0.24842132034899364 -0.07219078092348992 -0.010426238599153925 0.045390615270280425
0.0498972071448898 0.031161617902367683 -0.08061859690165778 0.1018482590794483 0.03676159437185583 -0.31182240936546196 1.6016865745190787 0.5371061195616894
0.04961403247691923 -0.04789165462079643 -0.21013561876710943 1.93727012980353 0.013764176930318343 0.14602478102443353 1.0226952261374433 0.037212517436510634
0.15969419930576897 -0.2848317423431262 -0.3487310786093055 0.046609092868300846 -0.08379813517116513 -0.8841933637858725 -0.14396550492786378 0.16544022991848384
0.3243424530499017

1.weight f8 [15]
00000000: a889 f859 8451 e03f da3f b6c5 d63d e93f
00000010: 23b9 9994 55de e43f b3f2 6d12 7bf2 e33f
00000020: 170b baaf 9871 ea3f 90da 1bbf 28bf d53f
00000030: 4812 20c1 3bfa de3f 7935 a628 7a5e d43f
00000040: 8ea3 2224 2d76 f63f 1e13 059c 5604 ea3f
00000050: 1d8a 4f4e d918 f93f 5882 360f 7045 e23f
00000060: 9052 6611 c003 ef3f e500 5ed5 357a ee3f
00000070: 76d2 a91f c302 da3f
0.509950805401151 0.7887987004814889 0.6521404173234128 0.623349700923049 0.8263667518770913 0.3397924295708572 0.484023035620599 0.31826642961171775
1.4038516437087512 0.8130295798551719 1.5685666140567556 0.5709762856605023 0.9692077960813368 0.952418247921767 0.40641859142423387

1.bias f8 [15]
00000000: 4d0d 83f0 4b16 d4bf 7023 1f2a 10b7 e2bf
00000010: 257d fcc7 3bd9 ddbf f5cc 3412 1b5d d6bf
00000020: 92b6 9f37 2e05 e8bf d4d2 02f1 881d b53f
00000030: 6f68 c7b0 54ff c8bf dfa7 d39e abe6 d0bf
00000040: 9d7d fe98 a299 f2bf d68c bc9c f4f5 ddbf
00000050: 7623 81d5 d875 f0bf e5ba e3bd 351c c8bf
00000060: 3573 2c44 ac1c d6bf 64bb b768 b479 cfbf
00000070: 77a8 4b08 9bc5 aabf
-0.31386087882511476 -0.5848465750396894 -0.4663838818541584 -0.3494327237887796 -0.7506323896793268 0.08248191722925508 -0.19529207832130477 -0.2640790034334923
-1.16250858081171 -0.46813693338681384 -1.02877124214339 -0.18836089870406805 -0.3455000558622488 -0.24590163338822457 -0.05228886104835422

1.running_mean f8 [15]
00000000: 65e6 1037 76cb 85bf 6687 7da5 ecaf 61bf
00000010: 92da 1bba e422 903f 6815 9d71 d3af a2bf
00000020: c004 5147 fa15 953f 60e3 9a59 0f33 97bf
00000030: c8fd 739a 3c33 8b3f 30f6 ab1f f08d 723f
00000040: 6a5c 3b57 fa61 6bbf 7088 f5b5 6917 6b3f
00000050: d0be 88f1 58d3 64bf d40f a555 90f3 62bf
00000060: 8f29 77de 7a5f 7a3f 5437 d310 2a5c 96bf
00000070: 7009 b1a3 0cfd 863f
-0.010641978793603355 -0.0021590826035415176 0.015758108004741596 -0.03649769555935728 0.020591650584042 -0.0226557157936641 0.013281320060285831 0.004529893859169173
-0.003342617937828464 0.0033070625938061357 -0.0025421845605463136 -0.002313405898492585 0.0064387130327737815 -0.021835953976555203 0.011224840875119851

1.running_var f8 [15]
00000000: 0c74 8020 5d2a 0a40 4833 c94d facb 0640
00000010: 6a5a d80a 5bee 1240 3ccd fe72 8a59 2540
00000020: 7c95 ddbe 618d 1940 fa3f 3bc5 5581 1840
00000030: 18b1 5b50 48b6 0940 2f63 fec2 ff80 0840
00000040: 35d4 8f20 dda3 0940 066e 6ce8 d3e3 2340
00000050: 12d5 d9db 0ad3 0840 e693 5f12 c1e1 1a40
00000060: d87c 026e 4376 1c40 f6f7 13c9 113f 0540
00000070: ec4e f94c 43ea 2640
3.270685438079914 2.849598510458609 4.732769174056196 10.674884408572886 6.388068182253274 6.126303750745132 3.214005115316592 3.062987826717652
3.2050116104024036 9.944976104007775 3.1030480552532334 6.720463072856523 7.11549159898933 2.6557956418246205 11.4575447134334

3.weight f8 [8, 15]
00000000: 58b0 05ff c650 c0bf 5bfe 16a8 e7ec ddbf
00000010: c4be 44f7 6acb a7bf ecfd 11b6 f53e bbbf
00000020: 831c b655 a3c2 d8bf 2418 ed4c bbff 8cbf
00000030: c38e 51d6 76da e63f cb10 c0e9 3070 cf3f
00000040: dd7a 9042 7edf e53f 3635 4197 be9b dfbf
00000050: b3f2 2423 ee1c e1bf 8e62 5638 07be b63f
00000060: 3b79 4525 09b6 e4bf 4f68 5c0b 0606 c5bf
00000070: a0d2 fca6 44b2 e4bf c5ad 4b29 1713 ce3f
00000080: 503c 335b 9278 d03f 8ad5 968f e619 b6bf
00000090: 9324 d046 f5dc a0bf b50a 92c5 53c1 e4bf
000000a0: 4900 9439 9096 87bf 7b68 c4fc ec4e 7f3f
000000b0: ac52 323b e686 b1bf 68a5 37b0 4da5 f63f
000000c0: 95cc d216 a37e a03f 52c9 ce89 83b4 f6bf
000000d0: 1d98 1c8a 870b c7bf 4d05 034f 3c79 a03f
000000e0: 50d8 b23d 72ea c0bf 3511 4b4f 6609 bdbf
000000f0: 88e5 fa1e b359 ccbf f4e8 c3f4 5e3d ac3f
00000100: 3c09 6009 ecda bcbf b1bc af55 f4c3 9d3f
00000110: 2dc5 f3d9 34fa e7bf 35ae e81a 7ff6 d83f
00000120: 016d 70df e54a c3bf ff69 8aa1 847c aabf
00000130: f49c a3c2 5885 f53f 7ccf 0b0c 304b e0bf
00000140: 5e6f eeea 6f34 f3bf de3f 6f14 e1d3 9bbf
00000150: 481d 1094 0511 b43f 8132 6887 dc2f ccbf
00000160: 5fb6 fab9 5eeb ebbf 61dd 15d8 5352 c5bf
00000170: 1837 81ec 891b e03f ba8a 0b79 ecd1 b93f
00000180: 6c39 11ec 17f5 973f 79b5 7a2d 8d56 b3bf
00000190: f43d 9292 013f bebf ad52 12e1 a0ba 973f
000001a0: 38b5 bb59 77a2 b9bf b732 ce9a 1e15 bf3f
000001b0: 00e8 4893 14ff eb3f 858c 25a6 d579 b3bf
000001c0: 5ba3 832c 54f8 ae3f 81d0 1d45 ff2d bcbf
000001d0: b008 df01 2b6c f0bf 0bc6 7653 e675 d03f
000001e0: 6031 19e3 b7c9 d0bf bf5e 0df9 d5a6 a2bf
000001f0: 6715 87c7 72a9 d7bf 1796 16c7 e6c2 c33f
00000200: 288f 98c6 0f42 d5bf f951 3aa5 17c5 c73f
00000210: da3f c77f c83c b3bf 1184 1f13 d5d8 c1bf
00000220: 6e2b 2c73 030b ec3f 4964 c358 a7e4 bdbf
00000230: 864d 1d90 305c eabf 664a ea7c 33b0 a23f
00000240: 81ef daad 8c93 dd3f f7a1 0699 490b 8cbf
00000250: 0d0b fb7b e060 b8bf 9279 c97b 252e ed3f
00000260: cf17 9277 067d ec3f 9292 f189 c229 b0bf
00000270: f853 e755 82d0 633f 30f6 d451 a310 c5bf
00000280: 6e11 7516 a6a9 a63f f200 5e5c faad 8b3f
00000290: d4e2 8821 ce48 7fbf 8dcd 6fc5 da6d ecbf
000002a0: d1c6 90ff 1331 babf 8a92 c51d f2c9 e13f
000002b0: 533a 1d0a 249e a7bf 246e 869d 7558 b73f
000002c0: 105b d9cd 2edc c43f bdd5 d1b2 5bff a5bf
000002d0: 8b22 3cd3 5c93 cbbf 5842 41a6 7143 a03f
000002e0: e5d3 fb95 5ce0 d83f 11f2 4e9c 249e c03f
000002f0: 7873 3135 dd5d d2bf 5f3a 1a04 25d1 c63f
00000300: edc0 f56a 7d5d b7bf 51ba 44a9 b5a8 dcbf
00000310: ad50 2047 9fbe eb3f e7a8 bada 3832 a8bf
00000320: 2322 14f4 38bf e9bf 8586 c98d 41c1 babf
00000330: 1298 c2dd 528a c7bf a57b 5ab9 b5e8 a0bf
00000340: f5b3 114a aeb4 afbf ec54 6451 a232 ccbf
00000350: f074 9373 32fa d63f c950 6411 7b32 b5bf
00000360: 564a 1ddf 5b39 f83f 1a05 fb0c 4ca4 b1bf
00000370: 73a6 fa39 af75 c6bf e7a8 87db 7fbf 89bf
00000380: 9bc4 1745 35d0 e03f 5cb6 b4a5 9b20 d0bf
00000390: 19a8 d2c9 3e75 c43f 0427 6419 4c8a 79bf
000003a0: 9ce3 4606 1ebb e33f f7cf 4b64 d0ce dbbf
000003b0: f734 9a24 7666 d33f eee1 5d69 26d0 61bf
-0.12746512844330726 -0.46758452811261514 -0.046473829921863025 -0.10642944045138564 -0.3868797623658297 -0.014159644398784428 0.71416799410914 0.24561129964434367
0.6835318851552433 -0.49388088961571286 -0.534781521455065 0.08883710027147115 -0.647221157832781 -0.16424632601484965 -0.6467612515903802 0.23495759502780636
0.25735911279929713 -0.08633271222682573 -0.03293577660958493 -0.6485995158003194 -0.011517645604271947 0.0076436288184372715 -0.06846465058544976 1.4153572925082134
0.03221616414648413 -1.4190707572093584 -0.18003935092673454 0.032174954075808594 -0.13215473187091442 -0.11342467723722367 -0.22148741734217148 0.05515572297913876
-0.11271548489461208 0.029067819337737336 -0.7492927796248857 0.39004495265791955 -0.15072320375552553 -0.05173124763424041 1.3450553515520456 -0.5091781840587681
-1.2003020455367372 -0.027175442573763912 0.07838473191087758 -0.2202106152693837 -0.8724816925438964 -0.16657493639989254 0.5033616656525934 0.10085943179323467
0.023395894797709912 -0.07553942070327037 -0.11814889744186258 0.023172868478087128 -0.10013528767349988 0.12141600875311097 0.8748877407699638 -0.07607779794993703
0.06048834842096681 -0.11007686078466074 -1.0264082024664667 0.2571960272863129 -0.26231190850810115 -0.03642910638035123 -0.3697173069488912 0.15438542100052707
-0.33215708154806345 0.1857022816444809 -0.07514622802341311 -0.13942969735856584 0.8763444184745433 -0.11677022854873188 -0.8237536253677014 0.03650055789798472
0.46213070848511256 -0.01369340418098462 -0.09522822405692129 0.9118831079211296 0.8902618728031885 -0.06313720577015605 0.0024187608353067845 -0.16457025047013607
0.04426306747567109 0.013515430396865178 -0.007637791823577007 -0.8884099823175561 -0.10231137265580094 0.555901582859023 -0.04612839339698795 0.09119353385761336
0.16296944667075097 -0.04296385343415519 -0.2154346496029301 0.03176455645064341 0.38869394919248484 0.1298261416649358 -0.28697900957722977 0.178257586482192
-0.09127029286696926 -0.44779721765636277 0.8670193089660835 -0.04725816412003941 -0.8045925872002652 -0.10451135360338 -0.18390880420810213 -0.03302543532958361
-0.06192536024250465 -0.22029522871222385 0.3590208176299958 -0.08280152487378979 1.5140036311537606 -0.06891322438152195 -0.1754664452649198 -0.012572287451764598
0.525416026064835 -0.2519902342054132 0.15982804159767808 -0.006235406172217631 0.6165914652439031 -0.43449792666001436 0.3031287534184481 -0.0021744489885657725

4.weight f8 [8]
00000000: 7197 74bf 2962 e73f ebbc e03c ceb7 ee3f
00000010: 77ba 3eaa cfaf ed3f 66ef b6d7 ce34 e63f
00000020: 5fb5 d061 4ded f53f ccaa b657 85bd e33f
00000030: 0642 4fe1 d98f f63f a769 c72b 4219 d73f
0.7307327975620251 0.9599372090359827 0.9277113270853324 0.6939462865043253 1.3704351254376304 0.6168848717837476 1.4101198960453316 0.3609166553048006

4.bias f8 [8]
00000000: 2532 fc72 2139 debf 48ba d971 7e09 d4bf
00000010: 9500 c7d2 b5a1 e0bf d7f4 2cde b6a4 b23f
00000020: 1624 d6f5 f892 d7bf cefe e557 614a c63f
00000030: bc95 ece2 774f e6bf abf3 215a 0912 e83f
-0.4722369788076171 -0.31307946317875635 -0.5197400204415482 0.07282584118088962 -0.36834548957318825 0.1741449050132275 -0.6972007209885116 0.7522017250445193

4.running_mean f8 [8]
00000000: 0e96 048b fa7a d8bf ceac 9dff 227e c5bf
00000010: d851 3c84 06b5 d2bf 1a2f b690 c2e8 8abf
00000020: 244b 49ed 874b 9fbf 98e9 05d2 d0a5 c63f
00000030: 50c1 f495 46a2 b6bf 0e1a 3192 8e57 c53f
-0.3825060231777976 -0.16791188699003218 -0.29229891694674626 -0.01313926700711181 -0.030561565263563698 0.17693529372247663 -0.08841363106762867 0.16673452509185477

4.running_var f8 [8]
00000000: 40a0 19b3 b0b9 d23f a673 0e9f 12ca ac3f
00000010: b10d 50f4 b393 ca3f b712 6cc2 c80a e33f
00000020: f16f 2914 5b9c bd3f c1a6 0669 b66a e03f
00000030: 0d55 d4aa 9258 b43f 2e61 ebd6 2ce2 c63f
0.2925836323761395 0.056229192653723545 0.20763253621417513 0.5950664326961349 0.11566704981072441 0.5130264331139288 0.07947651548996167 0.17877731794465873

6.weight f8 [4, 8]
00000000: f9c6 76e8 5cd5 f4bf e65d 1791 3033 b13f
00000010: da88 801c 4116 f1bf 6017 7694 bde7 cd3f
00000020: fa2b a2dd f46c 9b3f e06f dc8d 417a bdbf
00000030: cc99 6f52 0b06 f5bf e4d4 79dd 14ad ba3f
00000040: 04c0 a69e 1ef6 c23f 54fa 3506 7982 babf
00000050: b044 6e41 7477 c23f fa52 7b98 6b8e e5bf
00000060: 753e 8fcc 92f1 e1bf ee2a 2a39 798a 7f3f
00000070: f5db 30fa d308 f43f 9179 3905 ed97 ca3f
00000080: 46a4 6504 c4a0 c93f a320 5992 329e e03f
00000090: 4936 9a20 6696 d5bf 748c d981 4874 d03f
000000a0: ef2f fc55 6649 ba3f 0322 0231 7f6e d3bf
000000b0: 10ca 80ca 9a16 d93f 8d01 c0e1 7cbf f3bf
000000c0: 3656 70b7 ecdb cb3f 8a8b b81e 9bca d5bf
000000d0: e9bb 2199 0e37 cdbf 5b7b 7673 fbd5 a0bf
000000e0: 713f ab5c bb01 f5bf e0a6 2ad6 dcbb dc3f
000000f0: 4c5e 7f22 49ad aebf 618d 3cc3 eb76 c53f
-1.302090557157895 0.06718734304683202 -1.067933188759119 0.23363466023527746 0.026782823588785455 -0.11514672959714245 -1.3139756412652899 0.10420351416708545
0.1481359743752365 -0.10355335618621925 0.14427045054302345 -0.6736352899702915 -0.5607389445594452 0.0077004180226463 1.2521552823143314 0.20776140933135115
0.20021867956828227 0.5193112238275898 -0.3373046224959109 0.2570973651947448 0.10268249129529726 -0.30361919198961135 0.3920046784943745 -1.2342499559746074
0.21764906842206394 -0.34049108505330905 -0.2282427070344675 -0.03288255485971688 -1.3129228229408592 0.44896622576434986 -0.05991581483948191 0.16769167931588938

7.weight f8 [4]
00000000: 5f96 2a46 6754 f03f 8fac 2d72 eec7 f53f
00000010: 0c93 7ae0 ddac dc3f e583 a9b7 ac76 f63f
1.0206063023446388 1.3613113842100437 0.44805094644316124 1.4039733099273175

7.bias f8 [4]
00000000: 2145 9991 0126 c3bf 088d 868e c4f8 d13f
00000010: 13b2 4cce f349 eb3f 5f68 202a 59e9 d3bf
-0.14959735497772278 0.28080858152880284 0.852777388504878 -0.3111174498932367

7.running_mean f8 [4]
00000000: f5c2 4ff7 995a d9bf ebe5 cb4f b5be c43f
00000010: 7d31 c3a3 7c50 e8bf c2c8 11e0 2fd7 d2bf
-0.3961548724319493 0.1620699538832889 -0.7598250578389948 -0.29438397294792307

7.running_var f8 [4]
00000000: 32d8 756e df91 f13f ab1a bc60 5837 f13f
00000010: 678f 8502 158e d83f b404 f19d 9f2c e93f
1.0981134714943548 1.0760120180799884 0.38367200132619533 0.7866972050470822

9.weight f8 [2, 4]
00000000: f287 38e1 ece4 e3bf c171 d3e9 cdba ea3f
00000010: e53f d659 1cf9 c13f c600 5f62 7f4b babf
00000020: 6ad1 ac8f e654 b33f 3e74 6601 d00a b2bf
00000030: 5993 bffe 214d dd3f b371 22ff 932e f93f
-0.6216949843258119 0.8353032652772115 0.14041475664680472 -0.1027145018733818 0.07551423080150746 -0.07047748598275036 0.4578328120972422 1.573871609324766

10.weight f8 [2]
00000000: d57e 9be7 1ec4 ed3f b3f4 cdad e4ca d93f
0.9301905177671538 0.4030086228666036

10.bias f8 [2]
00000000: 75cd 5987 4b94 f33f f6b6 011b 0639 db3f
1.22370484229472 0.42535545956967213

10.running_mean f8 [2]
00000000: dcb7 22d8 d9a4 d93f c934 a89e 75b4 ea3f
0.40068670374864523 0.8345287417193045

10.running_var f8 [2]
00000000: 9fa3 c13d a497 f23f ae0a d429 c54e e63f
1.1620218670234193 0.6971154992064237
