作家按照年份处理数据/check_point/Net_decoder_para2.pkl (torch, 18415 bytes, 20 tensors)

0.weight f8 [19, 2]
000000 00 00 00 20 97 4b d5 bf 00 00 00 40 cd 1f db 3f
       -0.3327386677265167 0.4238160252571106
000010 00 00 00 00 4c 9a 95 bf 00 00 00 20 18 f1 e0 3f
       -0.021096408367156982 0.5294304490089417
000020 00 00 00 20 49 af e4 3f 00 00 00 80 4a 04 c1 3f
       0.6463971734046936 0.13294345140457153
000030 00 00 00 00 a0 58 63 bf 00 00 00 80 04 7a c6 bf
       -0.002361595630645752 -0.17559868097305298
000040 00 00 00 c0 2b aa d4 bf 00 00 00 c0 be ec d7 3f
       -0.3228864073753357 0.3738247752189636
000050 00 00 00 20 d5 be e3 3f 00 00 00 00 b0 a9 97 3f
       0.617044985294342 0.023108243942260742
000060 00 00 00 00 ff 19 c8 bf 00 00 00 00 fb 83 d5 bf
       -0.18829333782196045 -0.3361804485321045
000070 00 00 00 40 b2 16 da 3f 00 00 00 a0 eb 79 e6 3f
       0.40763527154922485 0.7023828625679016
000080 00 00 00 00 d5 99 b9 bf 00 00 00 20 af ee e5 3f
       -0.10000354051589966 0.6853862404823303
000090 00 00 00 40 62 d7 d9 3f 00 00 00 a0 4f fe d9 bf
       0.40377098321914673 -0.40614691376686096
0000a0 00 00 00 00 5b 60 cc 3f 00 00 00 e0 65 7c e2 3f
       0.22169053554534912 0.5776852965354919
0000b0 00 00 00 80 4b b0 cd 3f 00 00 00 40 16 48 d1 3f
       0.23194259405136108 0.270024836063385
0000c0 00 00 00 a0 ca 9c e1 3f 00 00 00 a0 75 f0 e4 3f
       0.5503895878791809 0.6543529629707336
0000d0 00 00 00 a0 da ae d4 bf 00 00 00 40 ad bf d5 3f
       -0.3231722414493561 0.33982402086257935
0000e0 00 00 00 40 94 11 d2 3f 00 00 00 20 8e e6 e1 bf
       0.2823229432106018 -0.5593939423561096
0000f0 00 00 00 00 36 e8 a0 3f 00 00 00 00 98 f1 ba 3f
       0.033021628856658936 0.10524892807006836
000100 00 00 00 00 92 9f c2 3f 00 00 00 a0 8b f2 d8 bf
       0.14549469947814941 -0.38980379700660706
000110 00 00 00 40 ce cb d3 3f 00 00 00 00 dd 56 c2 3f
       0.3093143105506897 0.14327585697174072
000120 00 00 00 a0 93 36 e1 bf 00 00 00 80 1d db d0 3f
       -0.5379121899604797 0.2633737325668335

1.weight f8 [19]
000000 00 00 00 00 00 00 f0 3f 00 00 00 00 00 00 f0 3f
       1.0 1.0
000010 00 00 00 00 00 00 f0 3f 00 00 00 00 00 00 f0 3f
       1.0 1.0
000020 00 00 00 00 00 00 f0 3f 00 00 00 00 00 00 f0 3f
       1.0 1.0
000030 00 00 00 00 00 00 f0 3f 00 00 00 00 00 00 f0 3f
       1.0 1.0
000040 00 00 00 00 00 00 f0 3f 00 00 00 00 00 00 f0 3f
       1.0 1.0
000050 00 00 00 00 00 00 f0 3f 00 00 00 00 00 00 f0 3f
       1.0 1.0
000060 00 00 00 00 00 00 f0 3f 00 00 00 00 00 00 f0 3f
       1.0 1.0
000070 00 00 00 00 00 00 f0 3f 00 00 00 00 00 00 f0 3f
       1.0 1.0
000080 00 00 00 00 00 00 f0 3f 00 00 00 00 00 00 f0 3f
       1.0 1.0
000090 00 00 00 00 00 00 f0 3f
       1.0

1.bias f8 [19]
000000 00 00 00 00 00 00 00 00 00 00 00 00 00 00 00 00
       0.0 0.0
000010 00 00 00 00 00 00 00 00 00 00 00 00 00 00 00 00
       0.0 0.0
000020 00 00 00 00 00 00 00 00 00 00 00 00 00 00 00 00
       0.0 0.0
000030 00 00 00 00 00 00 00 00 00 00 00 00 00 00 00 00
       0.0 0.0
000040 00 00 00 00 00 00 00 00 00 00 00 00 00 00 00 00
       0.0 0.0
000050 00 00 00 00 00 00 00 00 00 00 00 00 00 00 00 00
       0.0 0.0
000060 00 00 00 00 00 00 00 00 00 00 00 00 00 00 00 00
       0.0 0.0
000070 00 00 00 00 00 00 00 00 00 00 00 00 00 00 00 00
       0.0 0.0
000080 00 00 00 00 00 00 00 00 00 00 00 00 00 00 00 00
       0.0 0.0
000090 00 00 00 00 00 00 00 00
       0.0

1.running_mean f8 [19]
000000 24 30 a3 28 73 bd 67 3f 54 79 5e c9 ac 97 d2 3f
       0.00289795391026894 0.29050750412888715
000010 ca 33 43 2f 62 7f e1 3f 99 f2 27 45 9d 68 ba bf
       0.546799747762287 -0.10315878809337632
000020 62 ee 42 7a fd 44 93 bf af 42 93 28 85 91 dd 3f
       -0.018817864024397564 0.462006845115904
000030 f9 a2 37 77 07 31 d5 bf 50 16 1d c0 0b 78 e6 3f
       -0.3311175026160949 0.7021540405482458
000040 11 b6 a6 7f c3 af d4 3f 38 43 20 6d a9 2f ae 3f
       0.3232277628511336 0.05895738083939367
000050 0e 1f f4 75 b3 ac df 3f 0b 3c fb 39 dd c6 d4 3f
       0.49491583365350855 0.32463770544285414
000060 f7 60 91 a6 0e e7 e8 3f 6a 49 8c 6d 3d cc a3 bf
       0.7782052281645794 -0.03866760217910577
000070 dc ab a0 0b 3a 2d be bf d4 51 39 52 35 b6 b5 3f
       -0.11787760528447627 0.08481152779979279
000080 65 bb d7 f6 b7 90 be bf 41 7a ac 4f ec b0 d3 3f
       -0.11939573074753936 0.30767352848662105
000090 a4 d8 e5 22 9a 96 ce bf
       -0.2389710111999125

1.running_var f8 [19]
000000 6a 18 4f 7c 95 12 78 3f f0 70 cb be b9 9a 90 3f
       0.005877098014883323 0.01621523119943985
000010 d7 16 be 4d 43 e1 a1 3f 7c 22 8b 15 c2 7e 5f 3f
       0.034921744575553575 0.0019223113396710503
000020 a6 df 04 4f 05 8f 73 3f ad ef 35 a6 2e f9 99 3f
       0.004775067078575923 0.025364617247290933
000030 55 78 d0 8f 40 e6 8d 3f 71 ef c8 46 27 b8 b0 3f
       0.014599327458253134 0.0653099582495409
000040 04 df 2e 95 e3 0a 98 3f 04 0c b6 85 e0 e0 79 3f
       0.023479038219845996 0.006317975082654751
000050 90 f9 e4 f9 80 ae a1 3f 01 19 c9 c6 ad 22 8b 3f
       0.03453448343724397 0.013249738339379482
000060 b3 d0 0e 03 45 8a b3 3f 77 35 68 ed 7c 5b 71 3f
       0.07632857632308081 0.004237640378517474
000070 b6 91 b7 00 5b bd 85 3f 80 88 33 4e ca 20 51 3f
       0.010615073165305283 0.0010454154624360001
000080 96 5f 7c ff ba 98 77 3f 6b 34 c6 b1 64 c7 86 3f
       0.005760889492897455 0.011122500109900643
000090 27 a4 e3 33 6c 45 85 3f
       0.010386319478543694

3.weight f8 [19, 19]
000000 00 00 00 00 7b b2 bd bf 00 00 00 60 ca ef ca 3f
       -0.11600464582443237 0.21044282615184784
000010 00 00 00 80 9d b5 a0 3f 00 00 00 80 d9 65 b2 bf
       0.03263561427593231 -0.07186660170555115
000020 00 00 00 a0 aa 44 c6 bf 00 00 00 e0 87 11 c5 bf
       -0.1739705353975296 -0.1645974963903427
000030 00 00 00 e0 ef e6 c2 3f 00 00 00 40 bb 22 bb 3f
       0.147672638297081 0.10599870979785919
000040 00 00 00 00 46 ae 83 3f 00 00 00 a0 40 4c c0 3f
       0.00960974395275116 0.12732703983783722
000050 00 00 00 40 ea 5d bc 3f 00 00 00 00 e0 ff 78 3f
       0.11080802977085114 0.006103396415710449
000060 00 00 00 a0 79 cc c6 bf 00 00 00 c0 0d 00 b9 bf
       -0.1781150847673416 -0.09765706956386566
000070 00 00 00 c0 29 6c c0 bf 00 00 00 00 9f 5b b6 bf
       -0.12830087542533875 -0.08733552694320679
000080 00 00 00 a0 65 f5 c9 3f 00 00 00 40 86 67 b0 3f
       0.2028014212846756 0.0640796571969986
000090 00 00 00 e0 02 de c0 3f 00 00 00 00 d0 3b 75 3f
       0.13177524507045746 0.005183994770050049
0000a0 00 00 00 20 9f 40 c9 3f 00 00 00 c0 2a c4 b8 3f
       0.19728459417819977 0.09674327075481415
0000b0 00 00 00 c0 17 4b c8 bf 00 00 00 e0 2f fa c6 bf
       -0.18979164958000183 -0.17951010167598724
0000c0 00 00 00 00 6d 8c 9d 3f 00 00 00 c0 aa f6 b6 3f
       0.02885599434375763 0.0897013396024704
0000d0 00 00 00 80 8f 94 c6 bf 00 00 00 40 ea b0 b3 3f
       -0.17640870809555054 0.07691825926303864
0000e0 00 00 00 a0 89 b6 c3 3f 00 00 00 40 b5 ca b5 3f
       0.15400810539722443 0.08512432873249054
0000f0 00 00 00 80 ca 6d aa 3f 00 00 00 c0 b4 86 b5 bf
       0.05161888897418976 -0.08408670127391815
000100 00 00 00 80 9b 61 a9 3f 00 00 00 e0 82 f9 c6 bf
       0.04957281053066254 -0.17948947846889496
000110 00 00 00 00 37 14 b2 bf 00 00 00 20 55 c9 c8 3f
       -0.07062095403671265 0.193644180893898
000120 00 00 00 20 b6 8c c3 bf 00 00 00 00 2b 6a 95 3f
       -0.15273167192935944 0.020912811160087585
000130 00 00 00 a0 26 9d c9 3f 00 00 00 00 ee 8f aa bf
       0.2001083642244339 -0.05187934637069702
000140 00 00 00 a0 7a 7e c5 bf 00 00 00 40 b0 3b b6 3f
       -0.16792233288288116 0.08684827387332916
000150 00 00 00 20 f1 da c7 3f 00 00 00 e0 a7 0c c2 3f
       0.18636907637119293 0.14101122319698334
000160 00 00 00 a0 f5 62 c8 3f 00 00 00 c0 bf 79 c6 bf
       0.1905200034379959 -0.17559048533439636
000170 00 00 00 40 59 6e b9 bf 00 00 00 40 43 de b6 bf
       -0.0993400365114212 -0.08932895958423615
000180 00 00 00 40 ca e1 b6 3f 00 00 00 20 19 ba c3 3f
       0.08938278257846832 0.15411676466464996
000190 00 00 00 80 87 5c cb bf 00 00 00 20 3a 5f cb 3f
       -0.21376127004623413 0.21384359896183014
0001a0 00 00 00 60 af c7 c5 3f 00 00 00 00 28 53 8d bf
       0.17015640437602997 -0.014318764209747314
0001b0 00 00 00 20 a8 e2 c2 3f 00 00 00 00 e6 a2 86 3f
       0.14754201471805573 0.011052891612052917
0001c0 00 00 00 00 ab 7a 97 3f 00 00 00 80 e3 1e c9 bf
       0.022928878664970398 -0.1962551474571228
0001d0 00 00 00 a0 cd 9a c7 3f 00 00 00 40 09 31 c0 bf
       0.18441171944141388 -0.12649646401405334
0001e0 00 00 00 00 a0 ae 5a 3f 00 00 00 00 54 43 b4 bf
       0.0016285479068756104 -0.07915234565734863
0001f0 00 00 00 c0 3f f7 be bf 00 00 00 c0 e0 ca bf 3f
       -0.12096022069454193 0.12418942153453827
000200 00 00 00 00 1b 8f b4 bf 00 00 00 c0 58 1e b3 bf
       -0.08030861616134644 -0.07468180358409882
000210 00 00 00 e0 c8 46 bf bf 00 00 00 20 a3 cf c7 3f
       -0.12217383831739426 0.18602408468723297
000220 00 00 00 60 70 28 c5 bf 00 00 00 80 4c 0d a7 3f
       -0.16529659926891327 0.04502333700656891
000230 00 00 00 40 1a 7f bc 3f 00 00 00 80 1d 3b cb bf
       0.11131443083286285 -0.21274155378341675
000240 00 00 00 00 d9 19 ab bf 00 00 00 e0 4f 4b c2 3f
       -0.05293157696723938 0.14292334020137787
000250 00 00 00 80 e2 a0 ad 3f 00 00 00 c0 78 4d b2 3f
       0.05786807835102081 0.07149462401866913
000260 00 00 00 00 4c c5 cb bf 00 00 00 40 42 aa bf 3f
       -0.21695852279663086 0.12369169294834137
000270 00 00 00 00 62 b5 cb bf 00 00 00 00 6d 6a 98 bf
       -0.21647286415100098 -0.02384348213672638
000280 00 00 00 c0 62 ab b9 3f 00 00 00 20 a0 a5 ca bf
       0.10027138888835907 -0.20817948877811432
000290 00 00 00 60 17 09 c9 bf 00 00 00 a0 72 a1 bb bf
       -0.19558994472026825 -0.10793224722146988
0002a0 00 00 00 80 be dd b2 bf 00 00 00 c0 f4 92 b0 bf
       -0.07369604706764221 -0.06474237143993378
0002b0 00 00 00 80 ed 80 c9 bf 00 00 00 80 e8 33 af bf
       -0.1992470622062683 -0.06094290316104889
0002c0 00 00 00 00 e2 c8 9c bf 00 00 00 40 b7 3f b7 bf
       -0.02811005711555481 -0.09081597626209259
0002d0 00 00 00 00 f8 86 94 3f 00 00 00 40 11 8e b4 3f
       0.020046114921569824 0.08029277622699738
0002e0 00 00 00 e0 6a 55 c9 3f 00 00 00 80 87 13 c8 bf
       0.19791923463344574 -0.18809598684310913
0002f0 00 00 00 c0 d7 e6 c7 bf 00 00 00 40 a1 db bb 3f
       -0.18673226237297058 0.10882003605365753
000300 00 00 00 60 a3 1c ca 3f 00 00 00 60 ab 4d c8 3f
       0.20399896800518036 0.18987028300762177
000310 00 00 00 00 62 31 86 bf 00 00 00 a0 b4 22 c7 3f
       -0.010836377739906311 0.1807466298341751
000320 00 00 00 80 54 d1 af bf 00 00 00 80 45 40 a5 3f
       -0.06214393675327301 0.041505977511405945
000330 00 00 00 80 f7 76 a2 3f 00 00 00 80 88 5b a4 3f
       0.036063894629478455 0.03976084291934967
000340 00 00 00 40 9b 1b bd 3f 00 00 00 00 b6 a0 c8 bf
       0.11370249092578888 -0.19240450859069824
000350 00 00 00 e0 64 1b c5 3f 00 00 00 00 84 b4 72 bf
       0.16489849984645844 -0.004566684365272522
000360 00 00 00 c0 05 2a be bf 00 00 00 80 2b 05 af 3f
       -0.11782871186733246 0.060586318373680115
000370 00 00 00 00 0c 11 7d bf 00 00 00 40 5c 9d b6 3f
       -0.007096335291862488 0.08833862841129303
000380 00 00 00 40 66 62 c0 bf 00 00 00 40 7d e9 bc bf
       -0.12800291180610657 -0.11293776333332062
000390 00 00 00 a0 66 a4 c3 3f 00 00 00 c0 fa 6e bc bf
       0.15345461666584015 -0.11106841266155243
0003a0 00 00 00 a0 b8 be be bf 00 00 00 00 1e 10 82 3f
       -0.12009767442941666 0.008819803595542908
0003b0 00 00 00 00 62 14 9d bf 00 00 00 60 02 43 c8 3f
       -0.028398066759109497 0.18954496085643768
0003c0 00 00 00 00 58 7e 8b bf 00 00 00 a0 6e b4 c6 3f
       -0.013424575328826904 0.17738135159015656
0003d0 00 00 00 80 dd 69 a3 3f 00 00 00 00 44 b3 b1 bf
       0.037917062640190125 -0.06914162635803223
0003e0 00 00 00 a0 ba 5d c2 3f 00 00 00 80 2b 52 a9 3f
       0.14348538219928741 0.049455031752586365
0003f0 00 00 00 a0 b5 a9 c3 3f 00 00 00 20 5c 3e be bf
       0.15361662209033966 -0.11813903599977493
000400 00 00 00 80 d1 bc aa bf 00 00 00 00 a5 47 9b 3f
       -0.05222181975841522 0.02664048969745636
000410 00 00 00 20 33 b9 c7 3f 00 00 00 60 73 18 c3 3f
       0.18533934652805328 0.14918367564678192
000420 00 00 00 80 9b 49 ba bf 00 00 00 00 64 08 82 3f
       -0.10268566012382507 0.008805066347122192
000430 00 00 00 e0 ee 67 ca 3f 00 00 00 40 2d c1 bb 3f
       0.20629678666591644 0.10841639339923859
000440 00 00 00 00 b1 7d c0 bf 00 00 00 40 48 95 b6 3f
       -0.1288357973098755 0.08821536600589752
000450 00 00 00 00 0c ef 8d bf 00 00 00 80 1a 6e a5 3f
       -0.01461610198020935 0.041855648159980774
000460 00 00 00 c0 37 54 b7 3f 00 00 00 40 66 55 b5 bf
       0.09112881124019623 -0.08333434164524078
000470 00 00 00 80 ac 84 a1 3f 00 00 00 a0 c5 82 c9 3f
       0.03421534597873688 0.19930334389209747
000480 00 00 00 e0 a1 fa c6 bf 00 00 00 e0 89 fd bb bf
       -0.17952369153499603 -0.10933744162321091
000490 00 00 00 00 dc b3 95 bf 00 00 00 a0 c1 ae c1 3f
       -0.02119392156600952 0.13814564049243927
0004a0 00 00 00 c0 9c 28 b3 bf 00 00 00 e0 0a f3 c1 3f
       -0.07483844459056854 0.14022956788539886
0004b0 00 00 00 20 38 db c9 3f 00 00 00 40 4a 31 c9 bf
       0.20200254023075104 -0.19681671261787415
0004c0 00 00 00 20 63 10 c0 3f 00 00 00 a0 4a cf c6 3f
       0.12550009787082672 0.17820103466510773
0004d0 00 00 00 40 6b 89 b4 3f 00 00 00 00 f6 f8 ca bf
       0.08022184669971466 -0.2107226848602295
0004e0 00 00 00 a0 c1 7a c8 3f 00 00 00 40 5a d0 c6 bf
       0.19124622642993927 -0.17823341488838196
0004f0 00 00 00 a0 b7 d7 c3 3f 00 00 00 20 4a ad cc 3f
       0.15502066910266876 0.22403837740421295
000500 00 00 00 80 c1 4a af 3f 00 00 00 c0 7a aa b8 3f
       0.06111721694469452 0.09635131061077118
000510 00 00 00 e0 06 40 c8 3f 00 00 00 20 25 78 ca 3f
       0.18945394456386566 0.20679153501987457
000520 00 00 00 00 0f b5 9c 3f 00 00 00 20 d8 a0 c0 3f
       0.028034433722496033 0.12990857660770416
000530 00 00 00 80 65 3d ac 3f 00 00 00 e0 b7 b9 c7 3f
       0.0551559180021286 0.18535517156124115
000540 00 00 00 20 a1 ae c4 3f 00 00 00 c0 0b 9c bf 3f
       0.16157926619052887 0.12347482144832611
000550 00 00 00 c0 eb ce c4 bf 00 00 00 80 1e 41 ad 3f
       -0.1625647246837616 0.057137444615364075
000560 00 00 00 20 2a 05 c2 3f 00 00 00 60 1f 7d c2 bf
       0.14078260958194733 -0.14444343745708466
000570 00 00 00 20 b4 c4 bc bf 00 00 00 80 72 32 c9 bf
       -0.11237645894289017 -0.19685202836990356
000580 00 00 00 00 1d d7 ca bf 00 00 00 80 55 25 a0 bf
       -0.20968973636627197 -0.0315348356962204
000590 00 00 00 00 a8 4b 7d bf 00 00 00 00 9c 9b 8a 3f
       -0.00715222954750061 0.012992113828659058
0005a0 00 00 00 20 42 62 c7 3f 00 00 00 c0 08 7f bf 3f
       0.18268610537052155 0.12303213775157928
0005b0 00 00 00 00 b6 6f 96 bf 00 00 00 40 13 47 c1 bf
       -0.021910518407821655 -0.13498154282569885
0005c0 00 00 00 60 07 67 ca 3f 00 00 00 00 d5 4b c1 bf
       0.20626918971538544 -0.13512670993804932
0005d0 00 00 00 60 68 16 c6 3f 00 00 00 e0 f4 d9 c5 3f
       0.17255882918834686 0.17071400582790375
0005e0 00 00 00 80 a8 07 c4 bf 00 00 00 80 dc cf b9 bf
       -0.1564837098121643 -0.10082796216011047
0005f0 00 00 00 e0 60 8c c2 3f 00 00 00 a0 7e e2 bb bf
       0.14490900933742523 -0.10892478376626968
000600 00 00 00 e0 12 09 ca bf 00 00 00 40 f5 ee b3 3f
       -0.20340190827846527 0.07786495983600616
000610 00 00 00 40 29 70 bc 3f 00 00 00 00 10 ec 6e 3f
       0.11108644306659698 0.003774672746658325
000620 00 00 00 80 ee 4b aa 3f 00 00 00 a0 d9 5a cd bf
       0.051360562443733215 -0.2293350249528885
000630 00 00 00 e0 c7 f1 c5 bf 00 00 00 a0 c9 cb c7 3f
       -0.17144106328487396 0.18590660393238068
000640 00 00 00 40 5b 00 b4 3f 00 00 00 60 7d ab cc bf
       0.07813043892383575 -0.22398345172405243
000650 00 00 00 a0 00 4d c9 3f 00 00 00 00 8c 79 93 bf
       0.19766242802143097 -0.019018352031707764
000660 00 00 00 80 5f 13 ae 3f 00 00 00 00 a1 a8 ab bf
       0.058741554617881775 -0.05402091145515442
000670 00 00 00 a0 6c 2d c9 bf 00 00 00 00 c2 7d 91 3f
       -0.19669874012470245 0.01708129048347473
000680 00 00 00 60 a5 53 cd bf 00 00 00 80 d8 2b c0 bf
       -0.22911517322063446 -0.12633806467056274
000690 00 00 00 00 24 f2 9c bf 00 00 00 20 1f fa cb bf
       -0.02826744318008423 -0.21857060492038727
0006a0 00 00 00 40 44 e6 cb bf 00 00 00 00 1a 20 96 bf
       -0.21796467900276184 -0.02160683274269104
0006b0 00 00 00 40 53 af bd 3f 00 00 00 40 8c 8f b0 3f
       0.11595650017261505 0.06469036638736725
0006c0 00 00 00 40 d2 38 b2 3f 00 00 00 e0 23 f0 cb bf
       0.07117952406406403 -0.21826599538326263
0006d0 00 00 00 e0 ce b4 c1 3f 00 00 00 40 25 e5 b9 3f
       0.13833032548427582 0.10115273296833038
0006e0 00 00 00 00 50 7c b7 bf 00 00 00 80 7e 3d a6 3f
       -0.09174060821533203 0.04343791306018829
0006f0 00 00 00 60 14 8a c4 bf 00 00 00 c0 4f f6 b7 bf
       -0.1604638546705246 -0.09360216557979584
000700 00 00 00 c0 45 16 b0 bf 00 00 00 80 cc 91 a3 3f
       -0.06283985078334808 0.038221731781959534
000710 00 00 00 e0 2f 8d c4 3f 00 00 00 a0 e1 ba cc 3f
       0.16055868566036224 0.2244531661272049
000720 00 00 00 a0 ec c0 bb bf 00 00 00 40 32 79 b4 bf
       -0.10841254144906998 -0.07997430860996246
000730 00 00 00 a0 7d 13 c8 3f 00 00 00 20 21 f7 c6 3f
       0.18809480965137482 0.17941679060459137
000740 00 00 00 40 6c 67 b1 3f 00 00 00 80 3a 3b a1 3f
       0.06798435747623444 0.03365500271320343
000750 00 00 00 00 96 74 89 3f 00 00 00 e0 31 b9 cb 3f
       0.012429401278495789 0.21658919751644135
000760 00 00 00 20 ed b3 cb 3f 00 00 00 c0 90 8d c4 bf
       0.21642841398715973 -0.16057023406028748
000770 00 00 00 a0 6e 09 cd 3f 00 00 00 00 00 d4 2d 3f
       0.22685034573078156 0.0002275705337524414
000780 00 00 00 c0 fc 75 b4 3f 00 00 00 a0 39 d1 c3 bf
       0.07992534339427948 -0.15482254326343536
000790 00 00 00 00 70 07 6c bf 00 00 00 20 75 ed c5 3f
       -0.0034215152263641357 0.17130912840366364
0007a0 00 00 00 00 91 9b b2 bf 00 00 00 00 59 fe b8 bf
       -0.07268625497817993 -0.09763103723526001
0007b0 00 00 00 80 87 7b a7 3f 00 00 00 00 98 c9 71 bf
       0.04586432874202728 -0.0043426454067230225
0007c0 00 00 00 c0 5f f0 c9 bf 00 00 00 60 6e fc cb bf
       -0.2026481330394745 -0.21864108741283417
0007d0 00 00 00 40 e3 11 b4 3f 00 00 00 e0 9b 4f c8 bf
       0.07839794456958771 -0.18992947041988373
0007e0 00 00 00 c0 73 9f ba bf 00 00 00 80 e1 af b2 bf
       -0.10399554669857025 -0.07299622893333435
0007f0 00 00 00 e0 5e 82 cc 3f 00 00 00 00 91 14 a2 bf
       0.22272859513759613 -0.035313159227371216

4.weight f8 [19]
000000 00 00 00 00 00 00 f0 3f 00 00 00 00 00 00 f0 3f
       1.0 1.0
000010 00 00 00 00 00 00 f0 3f 00 00 00 00 00 00 f0 3f
       1.0 1.0
000020 00 00 00 00 00 00 f0 3f 00 00 00 00 00 00 f0 3f
       1.0 1.0
000030 00 00 00 00 00 00 f0 3f 00 00 00 00 00 00 f0 3f
       1.0 1.0
000040 00 00 00 00 00 00 f0 3f 00 00 00 00 00 00 f0 3f
       1.0 1.0
000050 00 00 00 00 00 00 f0 3f 00 00 00 00 00 00 f0 3f
       1.0 1.0
000060 00 00 00 00 00 00 f0 3f 00 00 00 00 00 00 f0 3f
       1.0 1.0
000070 00 00 00 00 00 00 f0 3f 00 00 00 00 00 00 f0 3f
       1.0 1.0
000080 00 00 00 00 00 00 f0 3f 00 00 00 00 00 00 f0 3f
       1.0 1.0
000090 00 00 00 00 00 00 f0 3f
       1.0

4.bias f8 [19]
000000 00 00 00 00 00 00 00 00 00 00 00 00 00 00 00 00
       0.0 0.0
000010 00 00 00 00 00 00 00 00 00 00 00 00 00 00 00 00
       0.0 0.0
000020 00 00 00 00 00 00 00 00 00 00 00 00 00 00 00 00
       0.0 0.0
000030 00 00 00 00 00 00 00 00 00 00 00 00 00 00 00 00
       0.0 0.0
000040 00 00 00 00 00 00 00 00 00 00 00 00 00 00 00 00
       0.0 0.0
000050 00 00 00 00 00 00 00 00 00 00 00 00 00 00 00 00
       0.0 0.0
000060 00 00 00 00 00 00 00 00 00 00 00 00 00 00 00 00
       0.0 0.0
000070 00 00 00 00 00 00 00 00 00 00 00 00 00 00 00 00
       0.0 0.0
000080 00 00 00 00 00 00 00 00 00 00 00 00 00 00 00 00
       0.0 0.0
000090 00 00 00 00 00 00 00 00
       0.0

4.running_mean f8 [19]
000000 a1 0b 40 cc cd a5 ae 3f 0a f4 d3 b4 85 47 72 3f
       0.05985873335159587 0.004462740221467429
000010 8a 96 2c 6f d4 a9 d9 3f b1 1f c1 cd 81 5c c4 bf
       0.40099058968403567 -0.15907309099770608
000020 cc 96 6f 9d aa b6 e5 bf bc 21 c2 45 a9 13 d3 3f
       -0.6785481524391002 0.2980750256761231
000030 3a 47 40 cc 53 c6 d5 3f 63 98 d0 20 9b a0 cd 3f
       0.3402299399032135 0.23146380522047413
000040 82 78 b5 ab 1d 89 ea 3f a4 fb 50 27 4f c4 b9 bf
       0.8292377809227818 -0.10065169057723594
000050 8d 22 09 c4 29 9e d0 bf 6a fe ff 50 79 55 c2 bf
       -0.2596535124217006 -0.14323345618321365
000060 61 2a 58 f5 5c c7 d8 3f 11 58 89 eb f3 99 c6 bf
       0.3871681590978025 -0.17657326699071565
000070 14 20 f2 d4 62 39 d6 bf 4d 4e 1f 8c 7e 23 c7 3f
       -0.3472525672482345 0.18077070085438365
000080 ec 9a e6 a7 08 19 b9 bf 7a 74 38 ab 0f 38 d5 bf
       -0.09803823565617237 -0.3315467044902288
000090 ee fe 94 75 59 5d b9 bf
       -0.09908064957289373

4.running_var f8 [19]
000000 d6 3f f5 fb ea 01 75 3f cd 54 94 89 24 65 45 3f
       0.005128782183717781 0.0006529262929314772
000010 32 ad 15 ff 4e b5 9c 3f 0a ed d0 d5 83 aa 7b 3f
       0.028035387343533454 0.006754412633252169
000020 de 0e ba f7 21 12 99 3f 9e 3f 52 4b 28 91 61 3f
       0.0244832332086976 0.0021444117542798865
000030 ea 99 5a 4f 43 38 94 3f 1c b3 d1 d5 26 33 81 3f
       0.019745876043680534 0.008398345375292098
000040 87 a5 da fb 2a b6 ae 3f 2c 58 1e 70 7a 25 46 3f
       0.05998358082190252 0.0006758544770828537
000050 7b ed a6 97 79 78 86 3f 6b a7 f6 77 7a 42 6c 3f
       0.010971975269845604 0.003449668117998896
000060 47 ea 99 09 f1 57 98 3f 8f bd cc a5 36 24 a8 3f
       0.023772970400822293 0.04715128683016722
000070 8f e7 e5 a2 7e d9 a0 3f 46 62 6e 1a 16 02 9c 3f
       0.03290935266973271 0.027351708758575087
000080 25 ce a5 f2 dd d3 38 3f a6 88 95 ce aa c9 7d 3f
       0.00037883919380663134 0.007272402968142943
000090 13 a1 fe fe 0e 5d 9a 3f
       0.025745615304601687

6.weight f8 [19, 19]
000000 00 00 00 a0 88 64 c9 3f 00 00 00 c0 70 17 b0 3f
       0.19838054478168488 0.06285767257213593
000010 00 00 00 80 c6 68 ba bf 00 00 00 a0 66 15 c9 3f
       -0.10316124558448792 0.19596560299396515
000020 00 00 00 40 a3 a4 b7 bf 00 00 00 40 e7 46 b7 bf
       -0.09235592186450958 -0.09092564880847931
000030 00 00 00 e0 52 e3 c1 3f 00 00 00 e0 10 3c cb bf
       0.13974986970424652 -0.21277056634426117
000040 00 00 00 80 ae c0 cc bf 00 00 00 a0 98 e3 c2 3f
       -0.2246301770210266 0.1475706845521927
000050 00 00 00 00 70 1f 59 3f 00 00 00 00 bc 9d 7b 3f
       0.0015333741903305054 0.006742224097251892
000060 00 00 00 00 24 f7 7e bf 00 00 00 00 99 4e 9b bf
       -0.007559910416603088 -0.02666701376438141
000070 00 00 00 00 a0 d4 4e bf 00 00 00 e0 b2 6e c6 3f
       -0.0009408742189407349 0.1752532571554184
000080 00 00 00 80 18 d9 b1 bf 00 00 00 e0 26 10 ca 3f
       -0.0697188675403595 0.2036179155111313
000090 00 00 00 e0 4c 11 ca 3f 00 00 00 00 9f 89 b3 bf
       0.20365296304225922 -0.07631868124008179
0000a0 00 00 00 00 ef af 9a 3f 00 00 00 a0 40 36 c1 3f
       0.026061758399009705 0.13446815311908722
0000b0 00 00 00 00 ed b1 9e 3f 00 00 00 c0 ea 64 b8 3f
       0.029975607991218567 0.09528987109661102
0000c0 00 00 00 a0 5b 37 cd bf 00 00 00 c0 05 de b5 3f
       -0.2282518893480301 0.08541904389858246
0000d0 00 00 00 c0 a5 0c b3 3f 00 00 00 00 bc 83 af bf
       0.07441173493862152 -0.06155192852020264
0000e0 00 00 00 a0 2f 22 cd bf 00 00 00 a0 42 66 bb bf
       -0.22760577499866486 -0.10702911764383316
0000f0 00 00 00 a0 0b 32 c6 3f 00 00 00 00 16 f1 aa bf
       0.17340226471424103 -0.05262058973312378
000100 00 00 00 60 87 d7 c9 bf 00 00 00 a0 93 21 ca 3f
       -0.20188991725444794 0.20414967834949493
000110 00 00 00 80 a8 31 c3 bf 00 00 00 a0 ff 5c cc 3f
       -0.1499529480934143 0.22158809006214142
000120 00 00 00 c0 0b dd c1 bf 00 00 00 00 5c f6 b8 bf
       -0.13955828547477722 -0.09750914573669434
000130 00 00 00 80 22 ed b9 bf 00 00 00 80 d6 80 c7 bf
       -0.10127463936805725 -0.18361932039260864
000140 00 00 00 00 1d a1 93 3f 00 00 00 40 0b 13 bd 3f
       0.019169285893440247 0.11357183754444122
000150 00 00 00 c0 9a e5 b2 3f 00 00 00 e0 85 18 c3 bf
       0.07381598651409149 -0.1491858810186386
000160 00 00 00 a0 ea b9 bb bf 00 00 00 00 86 87 a3 bf
       -0.10830561071634293 -0.0381433367729187
000170 00 00 00 00 92 e3 99 bf 00 00 00 20 29 86 c1 3f
       -0.025282174348831177 0.13690675795078278
000180 00 00 00 00 de 05 84 bf 00 00 00 60 78 af c6 3f
       -0.00977681577205658 0.17722992599010468
000190 00 00 00 40 ff 25 b5 3f 00 00 00 60 48 dd c3 bf
       0.08261103928089142 -0.15519051253795624
0001a0 00 00 00 20 6e 7d bf bf 00 00 00 60 67 a8 c0 bf
       -0.12300766259431839 -0.1301392763853073
0001b0 00 00 00 40 8c 0c b0 3f 00 00 00 80 7c 0c ad 3f
       0.06269146502017975 0.05673588812351227
0001c0 00 00 00 20 4b 4d c6 bf 00 00 00 40 0b 62 c9 bf
       -0.1742338091135025 -0.19830456376075745
0001d0 00 00 00 00 68 b0 a3 bf 00 00 00 80 1a 20 aa bf
       -0.03845524787902832 -0.051026180386543274
0001e0 00 00 00 20 56 55 c0 3f 00 00 00 c0 71 d8 c6 bf
       0.12760426104068756 -0.1784803569316864
0001f0 00 00 00 00 04 ad 9d bf 00 00 00 c0 98 8a b9 3f
       -0.0289803147315979 0.09977106750011444
000200 00 00 00 80 fc 18 a4 3f 00 00 00 80 80 ef b8 bf
       0.03925313055515289 -0.09740450978279114
000210 00 00 00 00 1a 2d aa bf 00 00 00 00 2d 6a c1 bf
       -0.05112534761428833 -0.13605272769927979
000220 00 00 00 e0 70 fb cc bf 00 00 00 80 51 21 aa 3f
       -0.22642336785793304 0.05103544890880585
000230 00 00 00 20 7f dd c4 3f 00 00 00 80 d9 92 a7 bf
       0.16300953924655914 -0.046042248606681824
000240 00 00 00 60 c5 72 c2 3f 00 00 00 00 e1 0b 97 3f
       0.14412753283977509 0.02250625193119049
000250 00 00 00 e0 16 51 be bf 00 00 00 40 96 c9 b6 3f
       -0.11842482537031174 0.08901347219944
000260 00 00 00 80 37 9f a1 bf 00 00 00 40 75 e9 b2 3f
       -0.03441785275936127 0.07387478649616241
000270 00 00 00 00 2b a7 cb bf 00 00 00 e0 bc ad c6 3f
       -0.21603906154632568 0.1771770566701889
000280 00 00 00 40 70 fd b2 3f 00 00 00 80 2a bd a0 3f
       0.07417966425418854 0.03269322216510773
000290 00 00 00 00 12 d5 b8 bf 00 00 00 a0 cb c6 c5 3f
       -0.09700119495391846 0.17012925446033478
0002a0 00 00 00 c0 1c bf b0 3f 00 00 00 60 d0 bf c7 3f
       0.06541614234447479 0.18554119765758514
0002b0 00 00 00 80 73 95 ac 3f 00 00 00 e0 f7 66 c6 3f
       0.05582772195339203 0.1750173419713974
0002c0 00 00 00 80 bf 04 b3 bf 00 00 00 c0 96 5e bb 3f
       -0.07429119944572449 0.10691206157207489
0002d0 00 00 00 20 15 6d c2 3f 00 00 00 80 01 d7 cb bf
       0.14395393431186676 -0.21749895811080933
0002e0 00 00 00 80 58 71 a2 3f 00 00 00 00 5e 87 b7 bf
       0.03602100908756256 -0.09190928936004639
0002f0 00 00 00 00 c6 d4 a6 bf 00 00 00 00 73 0e 9c bf
       -0.044592082500457764 -0.027398869395256042
000300 00 00 00 00 b8 9f 62 3f 00 00 00 80 26 f6 ab bf
       0.0022734254598617554 -0.054612353444099426
000310 00 00 00 00 75 6b c9 bf 00 00 00 a0 dd 87 c2 bf
       -0.19859182834625244 -0.1447712928056717
000320 00 00 00 e0 20 4b bb bf 00 00 00 20 35 41 c1 3f
       -0.10661511868238449 0.13480247557163239
000330 00 00 00 40 bb 8f b6 3f 00 00 00 80 81 71 a2 3f
       0.08813066780567169 0.03602223098278046
000340 00 00 00 00 4a c1 a0 bf 00 00 00 a0 85 30 cc 3f
       -0.03272467851638794 0.22023077309131622
000350 00 00 00 00 01 0c 9c 3f 00 00 00 40 bb 82 bf 3f
       0.027389541268348694 0.12308855354785919
000360 00 00 00 20 43 df cc 3f 00 00 00 c0 63 6f ba bf
       0.2255634218454361 -0.10326217114925385
000370 00 00 00 c0 33 fa b1 3f 00 00 00 80 67 59 ae bf
       0.07022403180599213 -0.059275850653648376
000380 00 00 00 a0 e0 cb c2 bf 00 00 00 c0 16 e4 b0 bf
       -0.14684684574604034 -0.06598035991191864
000390 00 00 00 80 2e e3 bf bf 00 00 00 00 a8 f6 60 3f
       -0.12456026673316956 0.0020707398653030396
0003a0 00 00 00 40 bf 47 bf 3f 00 00 00 a0 15 d4 c4 3f
       0.1221885234117508 0.16272230446338654
0003b0 00 00 00 a0 cb 6e c3 3f 00 00 00 40 26 8a b9 bf
       0.15181870758533478 -0.09976424276828766
0003c0 00 00 00 c0 7e 77 be bf 00 00 00 60 ca 81 c6 3f
       -0.11901085078716278 0.17583589255809784
0003d0 00 00 00 e0 b6 d2 cb 3f 00 00 00 00 88 f2 78 3f
       0.2173679918050766 0.006090670824050903
0003e0 00 00 00 80 f0 b4 bd bf 00 00 00 60 07 d3 cb bf
       -0.11604216694831848 -0.21737758815288544
0003f0 00 00 00 a0 e5 ac cc 3f 00 00 00 80 fc c9 ad 3f
       0.2240263968706131 0.05818165838718414
000400 00 00 00 c0 1d e3 b1 3f 00 00 00 c0 8e 5a bd 3f
       0.06987176835536957 0.11466304957866669
000410 00 00 00 80 de 8c b6 bf 00 00 00 40 16 38 c2 bf
       -0.08808699250221252 -0.1423366367816925
000420 00 00 00 80 c8 a5 a8 3f 00 00 00 20 8d fb c8 bf
       0.04813982546329498 -0.19517673552036285
000430 00 00 00 00 68 58 87 3f 00 00 00 00 9b 2c b9 bf
       0.01139909029006958 -0.09833687543869019
000440 00 00 00 e0 ac 76 c9 3f 00 00 00 80 cb 6e a1 3f
       0.1989341825246811 0.034048423171043396
000450 00 00 00 60 e8 d6 ca 3f 00 00 00 60 65 46 c9 3f
       0.20968346297740936 0.1974608153104782
000460 00 00 00 80 75 91 c4 bf 00 00 00 c0 9c 88 ba 3f
       -0.16068905591964722 0.10364703834056854
000470 00 00 00 c0 64 59 be 3f 00 00 00 00 f2 38 b4 bf
       0.11855153739452362 -0.07899391651153564
000480 00 00 00 80 ec 2f a5 3f 00 00 00 c0 1e bd c6 bf
       0.04138125479221344 -0.1776464879512787
000490 00 00 00 60 de 84 c2 3f 00 00 00 00 56 24 91 3f
       0.14467982947826385 0.01674017310142517
0004a0 00 00 00 80 14 c9 a4 bf 00 00 00 40 94 a1 bc 3f
       -0.0405966192483902 0.11184050142765045
0004b0 00 00 00 e0 19 db cb 3f 00 00 00 c0 5b 5b b3 bf
       0.21762393414974213 -0.07561276853084564
0004c0 00 00 00 00 db 34 90 3f 00 00 00 00 40 ec 79 3f
       0.015826627612113953 0.0063288211822509766
0004d0 00 00 00 00 93 c9 9b 3f 00 00 00 a0 24 35 c9 3f
       0.02713613212108612 0.1969342976808548
0004e0 00 00 00 e0 a0 09 c5 3f 00 00 00 80 6d 14 ae bf
       0.16435633599758148 -0.05874960124492645
0004f0 00 00 00 60 c8 d9 c9 bf 00 00 00 00 36 75 c7 bf
       -0.20195870101451874 -0.18326449394226074
000500 00 00 00 00 10 7b 7b bf 00 00 00 40 0b e6 b5 bf
       -0.006709158420562744 -0.08554144203662872
000510 00 00 00 e0 fe df ca bf 00 00 00 c0 b2 20 ba 3f
       -0.20996080338954926 0.1020614355802536
000520 00 00 00 c0 88 a7 b7 bf 00 00 00 e0 35 96 c7 bf
       -0.09240011870861053 -0.18427155911922455
000530 00 00 00 60 af 2c c0 3f 00 00 00 00 af 8f 98 3f
       0.12636367976665497 0.0239856094121933
000540 00 00 00 40 31 ab ca bf 00 00 00 40 a6 92 c9 bf
       -0.20834937691688538 -0.19978788495063782
000550 00 00 00 80 e5 98 ac bf 00 00 00 00 a3 10 b5 bf
       -0.055854007601737976 -0.08228510618209839
000560 00 00 00 00 5d 20 c7 bf 00 00 00 a0 9e 19 c6 bf
       -0.18067514896392822 -0.17265684902668
000570 00 00 00 00 54 01 8e 3f 00 00 00 40 29 a4 c4 bf
       0.014650970697402954 -0.16125980019569397
000580 00 00 00 00 4d 68 a4 bf 00 00 00 40 69 04 c2 bf
       -0.03985825181007385 -0.14075961709022522
000590 00 00 00 e0 66 bf c8 3f 00 00 00 00 60 54 47 bf
       0.19334112107753754 -0.0007119625806808472
0005a0 00 00 00 a0 e3 7c c0 3f 00 00 00 80 65 27 ac bf
       0.128811314702034 -0.0549880713224411
0005b0 00 00 00 00 3c b0 86 bf 00 00 00 a0 81 97 c5 3f
       -0.011078327894210815 0.16868610680103302
0005c0 00 00 00 40 b4 94 b7 3f 00 00 00 80 c9 1d a5 3f
       0.09211279451847076 0.04124288260936737
0005d0 00 00 00 40 54 b8 c0 bf 00 00 00 60 1b 1c c0 3f
       -0.13062527775764465 0.12585775554180145
0005e0 00 00 00 e0 1f b7 c7 bf 00 00 00 20 96 5d c0 3f
       -0.18527601659297943 0.1278560310602188
0005f0 00 00 00 c0 eb 53 b4 bf 00 00 00 e0 77 e0 c5 3f
       -0.0794055312871933 0.1709127277135849
000600 00 00 00 40 26 a4 c7 bf 00 00 00 80 b3 42 bd bf
       -0.18469694256782532 -0.11429902911186218
000610 00 00 00 a0 c2 48 ca 3f 00 00 00 40 25 76 bb 3f
       0.20534546673297882 0.10727150738239288
000620 00 00 00 20 68 b7 c5 3f 00 00 00 80 12 2d aa bf
       0.16965962946414948 -0.05112512409687042
000630 00 00 00 60 13 26 cb 3f 00 00 00 80 7b c3 ae 3f
       0.21209947764873505 0.06008516252040863
000640 00 00 00 20 de eb c7 bf 00 00 00 00 ea 49 85 3f
       -0.18688561022281647 0.010394886136054993
000650 00 00 00 40 d8 0d bd 3f 00 00 00 00 84 e3 89 3f
       0.11349250376224518 0.012640982866287231
000660 00 00 00 20 23 ff cc 3f 00 00 00 e0 f4 22 c3 3f
       0.22653616964817047 0.14950428903102875
000670 00 00 00 00 c0 14 79 bf 00 00 00 00 30 4e 71 bf
       -0.00612330436706543 -0.004224956035614014
000680 00 00 00 00 c2 45 82 3f 00 00 00 80 b9 99 c6 bf
       0.008922114968299866 -0.17656630277633667
000690 00 00 00 a0 49 a5 c1 3f 00 00 00 80 e5 50 c7 bf
       0.13785667717456818 -0.1821562647819519
0006a0 00 00 00 00 80 a2 65 3f 00 00 00 40 00 4b c6 bf
       0.002640962600708008 -0.1741638481616974
0006b0 00 00 00 00 ae b4 c4 bf 00 00 00 80 a5 a4 a0 3f
       -0.16176390647888184 0.032506152987480164
0006c0 00 00 00 a0 43 5a ca 3f 00 00 00 c0 56 17 c0 bf
       0.20587964355945587 -0.12571224570274353
0006d0 00 00 00 80 17 7c c0 bf 00 00 00 60 90 31 c4 3f
       -0.12878698110580444 0.1577625721693039
0006e0 00 00 00 80 35 ea a2 bf 00 00 00 20 37 82 bb bf
       -0.03694312274456024 -0.10745567828416824
0006f0 00 00 00 e0 53 d1 cc 3f 00 00 00 e0 2f e9 c3 3f
       0.22513817250728607 0.15555380284786224
000700 00 00 00 e0 73 47 c2 bf 00 00 00 40 90 fb b8 bf
       -0.1428055614233017 -0.09758855402469635
000710 00 00 00 c0 56 66 b1 3f 00 00 00 40 e4 4b b9 3f
       0.06796781718730927 0.09881426393985748
000720 00 00 00 20 14 ca c5 3f 00 00 00 40 ae 2c c7 bf
       0.1702294498682022 -0.18105104565620422
000730 00 00 00 c0 ec f9 b3 3f 00 00 00 40 f1 76 b6 3f
       0.07803229987621307 0.08775241672992706
000740 00 00 00 80 b6 c4 c8 bf 00 00 00 00 b1 68 9f 3f
       -0.19350320100784302 0.03067280352115631
000750 00 00 00 40 72 1f c4 bf 00 00 00 40 b0 8f b8 bf
       -0.15720966458320618 -0.09594251215457916
000760 00 00 00 e0 17 e7 c9 3f 00 00 00 a0 79 8e bd bf
       0.20236490666866302 -0.1154552474617958
000770 00 00 00 80 b1 5e a9 3f 00 00 00 c0 91 a4 c5 bf
       0.049550577998161316 -0.16908475756645203
000780 00 00 00 00 7a 68 97 bf 00 00 00 c0 75 38 b1 3f
       -0.02285948395729065 0.0672677606344223
000790 00 00 00 60 8c a4 c8 3f 00 00 00 40 d4 34 bd bf
       0.1925216168165207 -0.11408735811710358
0007a0 00 00 00 40 ce fd c6 bf 00 00 00 00 e0 d0 b0 bf
       -0.17962053418159485 -0.06568717956542969
0007b0 00 00 00 a0 51 aa c9 3f 00 00 00 00 92 2b a1 bf
       0.20051021873950958 -0.033535540103912354
0007c0 00 00 00 c0 9e 53 b0 3f 00 00 00 c0 46 29 c5 bf
       0.0637759417295456 -0.16532215476036072
0007d0 00 00 00 80 66 40 ae 3f 00 00 00 40 7c eb b8 3f
       0.05908508598804474 0.09734322130680084
0007e0 00 00 00 00 7b 36 93 bf 00 00 00 c0 31 5e ba 3f
       -0.018762513995170593 0.10299979150295258
0007f0 00 00 00 60 83 72 c8 bf 00 00 00 e0 2e 65 ca bf
       -0.19099466502666473 -0.2062128633260727

7.weight f8 [19]
000000 00 00 00 00 00 00 f0 3f 00 00 00 00 00 00 f0 3f
       1.0 1.0
000010 00 00 00 00 00 00 f0 3f 00 00 00 00 00 00 f0 3f
       1.0 1.0
000020 00 00 00 00 00 00 f0 3f 00 00 00 00 00 00 f0 3f
       1.0 1.0
000030 00 00 00 00 00 00 f0 3f 00 00 00 00 00 00 f0 3f
       1.0 1.0
000040 00 00 00 00 00 00 f0 3f 00 00 00 00 00 00 f0 3f
       1.0 1.0
000050 00 00 00 00 00 00 f0 3f 00 00 00 00 00 00 f0 3f
       1.0 1.0
000060 00 00 00 00 00 00 f0 3f 00 00 00 00 00 00 f0 3f
       1.0 1.0
000070 00 00 00 00 00 00 f0 3f 00 00 00 00 00 00 f0 3f
       1.0 1.0
000080 00 00 00 00 00 00 f0 3f 00 00 00 00 00 00 f0 3f
       1.0 1.0
000090 00 00 00 00 00 00 f0 3f
       1.0

7.bias f8 [19]
000000 00 00 00 00 00 00 00 00 00 00 00 00 00 00 00 00
       0.0 0.0
000010 00 00 00 00 00 00 00 00 00 00 00 00 00 00 00 00
       0.0 0.0
000020 00 00 00 00 00 00 00 00 00 00 00 00 00 00 00 00
       0.0 0.0
000030 00 00 00 00 00 00 00 00 00 00 00 00 00 00 00 00
       0.0 0.0
000040 00 00 00 00 00 00 00 00 00 00 00 00 00 00 00 00
       0.0 0.0
000050 00 00 00 00 00 00 00 00 00 00 00 00 00 00 00 00
       0.0 0.0
000060 00 00 00 00 00 00 00 00 00 00 00 00 00 00 00 00
       0.0 0.0
000070 00 00 00 00 00 00 00 00 00 00 00 00 00 00 00 00
       0.0 0.0
000080 00 00 00 00 00 00 00 00 00 00 00 00 00 00 00 00
       0.0 0.0
000090 00 00 00 00 00 00 00 00
       0.0

7.running_mean f8 [19]
000000 64 ec c3 12 af 11 cb 3f 0c bc 47 9c ba 58 bd bf
       0.21147716919208215 -0.11463514628825083
000010 93 ea de 10 b4 ba ca bf 5b 11 ac 08 b3 f2 c6 bf
       -0.20882273505943214 -0.17928159640735938
000020 b0 41 83 c4 30 3f cd 3f b3 47 09 7b 18 7a 8b bf
       0.2284909209761401 -0.01341647267796362
000030 0f 47 75 81 16 aa c5 3f f5 0c 29 e5 32 d1 cf 3f
       0.16925317116925284 0.24857174100370796
000040 4a 1a a9 ef 30 b4 d5 bf a0 ef 55 55 a6 ee bd bf
       -0.3391229954180842 -0.1169227560366708
000050 fe 20 18 1e 32 e5 d4 3f 53 85 e6 f4 bb b4 b3 bf
       0.32648899973766266 -0.0769765351201575
000060 ed d3 b4 8c 32 e8 b5 bf a0 f6 8c 23 e9 0a b8 bf
       -0.08557430205549084 -0.09391648405013564
000070 3b 65 b3 14 d4 2a d1 3f 89 c5 11 76 9f e0 d0 3f
       0.2682390405803578 0.26370989351479374
000080 7a 5d 38 f1 ce 03 d3 bf 5c bc 27 dd 04 c1 d9 3f
       -0.2971074443498406 0.4024059447974133
000090 54 ad 49 98 6f 2a a5 bf
       -0.0413393853567309

7.running_var f8 [19]
000000 8c c9 8a 9f 2a 92 ab 3f 26 56 62 e2 c2 a3 b7 3f
       0.05384953687225211 0.09234254862743593
000010 eb 44 e4 45 d7 bf c0 3f 7b 74 1d dd 83 83 c0 3f
       0.13085451996497652 0.12901352211602898
000020 25 9c 31 12 42 6f c1 3f 92 d5 2e 01 46 d0 c1 3f
       0.13620782745712848 0.13916850145112086
000030 16 c2 68 82 4e d4 c1 3f 06 38 d3 55 55 10 ba 3f
       0.13929158561360627 0.10181172700251304
000040 39 16 81 f6 49 8f 83 3f 7b 77 6a fc ec 17 b2 3f
       0.009550645671093526 0.07067757761475761
000050 d2 e6 d3 a9 90 5c c2 3f 6d 32 7a b7 1f 39 ae 3f
       0.1434498624073997 0.059029570719847914
000060 5c a5 59 0b ad fb ac 3f 0a 03 12 0f 0a 42 a7 3f
       0.05660763515045161 0.045425714816707055
000070 83 65 0b eb 6a f4 c1 3f 7a 71 be 21 02 3c 6f 3f
       0.14027153469832507 0.0038127938878018105
000080 d9 76 52 df 00 17 a3 3f 3a 25 ee 53 62 ef a1 3f
       0.037284877072335916 0.03502948069133045
000090 9a 1d cd e9 b2 46 b0 3f
       0.06357877929723657
