作家按照年份处理数据/check_point/Net_encoder_para.pkl (torch, 8767 bytes, 15 tensors)

0.weight f8 [12, 12]
000000 ce f3 05 b4 8e af d2 bf e7 74 fb 99 f7 68 e0 bf
       -0.2919651754417004 -0.5128133780923719
000010 04 68 de a0 40 87 d8 bf bc 31 a8 69 02 ba 9e 3f
       -0.3832551547035339 0.030006444643775984
000020 62 aa db 98 8e 27 d2 3f 89 5d 53 ca 4b d1 76 3f
       0.2836643688921524 0.00557069402312694
000030 80 52 11 dd 3a 54 03 40 94 b4 4d e4 21 9d ed bf
       2.4161278983031593 -0.9254311999371958
000040 1b 11 16 d5 a3 83 b0 3f 6c 48 90 ce a0 fd d6 bf
       0.06450866653728264 -0.35923023388125475
000050 58 69 04 67 0d 33 ff bf d0 45 0a d8 c8 af e2 3f
       -1.9499639534102098 0.5839580745252366
000060 be 5e 50 cd 96 6f fe 3f 26 8c c5 00 1d 59 f9 3f
       1.9022434253765108 1.5842561750548696
000070 fc 16 2c 4f 35 7d d1 3f f2 c9 a7 6b 4f 73 d5 bf
       0.2732671044508235 -0.3351629782984268
000080 f3 5d 31 ea 59 c1 ef bf b7 81 dd 53 80 ef 95 bf
       -0.9923524450377371 -0.021421437376717836
000090 9c ef 40 90 a9 01 e6 bf ee 35 1b 59 e9 f6 f4 bf
       -0.6877029244856092 -1.3102811318125265
0000a0 24 30 ca c0 65 c2 a3 3f d8 c6 30 c2 0c dc a3 bf
       0.03859251001730993 -0.03878822203149718
0000b0 60 c4 4d e6 e3 ac e5 bf cf f3 d5 7e 60 5e f0 3f
       -0.6773547647591265 1.0230412439843695
0000c0 8e f2 5a 4e ac ac f1 bf 60 d8 da 16 7b 80 ec 3f
       -1.1046565113785252 0.8906836935409608
0000d0 c8 e9 e7 80 ea d3 d6 3f 3f 44 66 27 8b 64 b2 3f
       0.35668432796924465 0.0718466731252798
0000e0 82 1a fb df 31 b4 d1 3f 46 7d d4 3c e1 98 a1 bf
       0.2766232192338195 -0.03436950557283551
0000f0 36 42 16 10 78 cc e2 bf 7c a5 03 14 49 f8 cf bf
       -0.5874595941732597 -0.24976457097299576
000100 06 cd 1d b9 77 61 ca bf 7a 5e 83 08 ba 65 fa bf
       -0.20609947718512717 -1.6498356182618452
000110 be 38 28 80 0a 85 c8 bf 3a 40 04 ff 94 1a 04 c0
       -0.19156008966132804 -2.5129795001194255
000120 b3 a8 69 94 bf 63 f0 3f 8a 22 56 08 5e 59 01 c0
       1.0243526265499383 -2.168636384132985
000130 b2 a9 67 84 57 67 ee bf 49 c8 48 96 97 50 df bf
       -0.95011497364367 -0.4892939536686112
000140 c6 64 81 08 d3 56 e2 3f 3d 61 f8 63 0b e9 92 3f
       0.5730986753580047 0.018467119194697224
000150 74 5e 29 f9 9c 36 e9 3f 79 8a 41 37 f8 1b e0 3f
       0.7879166475713206 0.5034142569750905
000160 56 97 4c 18 f3 5b bb 3f f8 de b4 29 c7 ed fa bf
       0.10687178939096262 -1.6830512646828861
000170 32 be 29 0c 22 08 bb 3f da c1 85 95 1f a3 b3 3f
       0.10559284970235508 0.07670781517459294
000180 16 3f 91 88 05 fe e8 3f 20 1f b6 4b 9e 9c f2 bf
       0.7810084979373382 -1.1632369000889824
000190 f2 3a 7d 67 98 f3 c5 bf e5 02 6d b9 15 d3 a8 bf
       -0.17149643948729182 -0.04848544968127103
0001a0 c3 cd 72 2b 25 74 74 3f c3 58 cd 93 b0 68 a4 3f
       0.004993577188702361 0.03986121944642342
0001b0 cd 10 95 f5 ab 94 ef 3f 78 63 9d b6 d8 fe f5 bf
       0.9868984028367095 -1.374718392695483
0001c0 54 a4 be d1 6b 24 d3 3f 56 92 c4 c6 2d b7 d9 3f
       0.2990979717529332 0.40180534754680275
0001d0 67 3e 7a 2e f8 c3 e1 bf 0a 6b cd 90 35 df fe bf
       -0.5551720531238516 -1.9294944435447996
0001e0 a4 0c 8e be 6e c8 e3 3f 0d cb 64 d6 b2 29 01 c0
       0.618216869523526 -2.1453606366643556
0001f0 9f 37 ed ca c6 9d b9 bf b2 72 18 1c 14 98 9b bf
       -0.1000637288500159 -0.02694732114297222
000200 26 36 8b d6 28 dc f8 3f 64 b2 d3 6e 7e 6c 6e bf
       1.5537498837105743 -0.003713843287746864
000210 7c 31 23 92 a2 7e 8a 3f 0a 39 4c 97 34 eb 02 c0
       0.012936849674951338 -2.364846403134952
000220 64 fb 40 08 49 b6 b1 3f 76 eb 4b 37 4c 0e d4 3f
       0.06918770267018953 0.31337266349844783
000230 84 ba b3 be ce 4a cd 3f 37 df 52 06 68 c4 b4 3f
       0.22884544669746643 0.08112192301166209
000240 04 0b 26 56 de b2 f8 bf f2 83 53 5a 97 08 f3 3f
       -1.5436690678768068 1.1895974663132134
000250 6a a1 7e 69 61 16 f6 bf c2 07 e9 e5 d0 a4 c9 bf
       -1.3804639931568894 -0.200342285405041
000260 86 f1 cd 20 b6 95 d0 3f 81 46 00 50 6c ff a1 3f
       0.2591376610141868 0.03515184856963761
000270 36 26 3d 37 25 22 ce bf 51 32 7a 2f af 10 b6 bf
       -0.23541703412256404 -0.08619208249201306
000280 a5 d0 f3 9a 46 87 cf 3f dc bb 07 18 45 b3 c7 bf
       0.24631578985247873 -0.18515838311529265
000290 84 ee 0f 59 84 d6 fa bf 7e d5 c8 0a be c4 f3 3f
       -1.677372310542439 1.2355328007955388
0002a0 32 ed f6 cb 66 85 e0 bf 7a 62 74 2c d1 a5 fa bf
       -0.5162843688662291 -1.665482686663522
0002b0 9f 57 b9 3b 6d 80 cf 3f 6e c8 08 a3 ba d4 d0 bf
       0.2461067716237126 -0.26298395081824466
0002c0 20 bb aa b0 0b a2 e2 3f cc 30 71 06 53 95 91 bf
       0.5822809649015177 -0.017171189563939745
0002d0 ea ce 09 84 e0 47 02 40 50 52 ce 7e 8a da fe bf
       2.2850961986058467 -1.9283547356946151
0002e0 74 69 28 9e eb 34 d3 3f 6a e5 d7 99 38 a0 d1 3f
       0.3001050037870734 0.2754041197182092
0002f0 64 b0 f0 10 8f d5 c1 bf 9a 9e ef 2d d3 3c f4 bf
       -0.13932979895742215 -1.2648498339057483
000300 23 31 bc 06 2a dc dc bf 48 87 8e 52 f5 fa e2 bf
       -0.450937754227896 -0.5931345570026929
000310 02 7f e7 f5 0c 46 e7 3f 24 e2 67 32 e6 5a b2 bf
       0.727301101953316 -0.07169951181993689
000320 10 54 38 c5 4c 54 cc bf 65 c9 ed 4a e7 c1 90 bf
       -0.22132262830624017 -0.016364683101934747
000330 36 df 9c 75 4e 3d f8 3f 5c 8f 38 54 51 32 f3 3f
       1.5149674028634315 1.1997845926170703
000340 54 aa 52 76 cc 51 cd bf ba 5a 0b 65 13 1c db bf
       -0.22905879762159265 -0.42358860843289003
000350 a8 ed bd 6e a9 ad d6 bf 5e a1 05 5e 3d af fa 3f
       -0.35434947790755666 1.667783133767521
000360 72 3d 13 81 af b9 f6 bf 12 cf d3 b6 99 8e 01 40
       -1.4203333894727987 2.1946291240109383
000370 8d 39 40 9e d1 46 b5 3f 98 4f e7 78 b7 8d c1 bf
       0.08311185945078688 -0.13713735011571937
000380 ca f0 18 c6 43 bd df bf bc d7 d9 5c 00 5f 94 3f
       -0.4959268030686529 0.019893651644870877
000390 82 a8 11 92 b3 6a 00 c0 dc cc 9b 8b 8d 9a bc bf
       -2.052100316203963 -0.11173329027569728
0003a0 18 cf b6 80 e7 b0 bc bf d2 48 20 d5 24 0f d3 bf
       -0.11207434551652928 -0.2977993089017562
0003b0 b4 40 6d 77 58 83 77 bf 4c fd c8 be 3a 5d e6 bf
       -0.005740495273883695 -0.6988805509826448
0003c0 3c 56 bd d1 12 e2 fd bf b4 c0 1d a4 40 94 d7 bf
       -1.8676937287285815 -0.3684236147592046
0003d0 c2 ee 82 bf 37 81 e5 3f fc 98 3f 57 86 0b c3 bf
       0.6720236530740851 -0.14878920803239015
0003e0 62 96 11 99 3b 61 ce bf 5d 2b 78 09 0f ee 9f 3f
       -0.2373423097043768 0.03118155951782896
0003f0 a5 0c 88 3f 21 c3 11 40 82 d1 8e 31 d3 a4 d0 3f
       4.440556519202038 0.26006011809956686
000400 ae bf b4 58 33 62 bf bf 10 66 f6 c1 57 ec b2 3f
       -0.12259217181849522 0.07391880498325798
000410 76 1a fb bf ab 21 cb bf de 64 06 d6 c7 a5 d0 3f
       -0.21196505426469842 0.26011844540478346
000420 09 41 fc d4 6e 66 f0 bf 9c a3 e8 5c 85 7d eb bf
       -1.0250080413571274 -0.859072381460567
000430 18 a1 ae 52 44 56 c1 bf 82 b7 5e ee 3b a3 c0 3f
       -0.1354451564523138 0.12998150958213378
000440 40 37 5d 7d 1b e1 c3 3f e2 cd 25 cc 06 f9 89 3f
       0.15530723210616237 0.01268201170453315
000450 3b 13 4b ee 26 d5 d1 3f 38 d1 e6 a8 fa 41 f9 3f
       0.2786347701151503 1.578608188411705
000460 2e 93 b2 69 52 69 ea bf 40 56 28 fd 04 36 f0 bf
       -0.8253566803365169 -1.0131883515326905
000470 f0 49 ae 19 18 a5 d7 3f 77 93 20 3a 43 72 f1 3f
       0.36945154674427183 1.0903961439700802

1.weight f8 [12]
000000 ee af 92 dd c5 ca d5 3f c8 a7 65 3d 00 28 e2 3f
       0.340501276378517 0.5673829268609945
000010 44 68 75 1b 65 71 d3 3f 66 6a 98 b7 d2 15 e8 3f
       0.303796078505574 0.7526639543387545
000020 0c 62 f7 c0 00 9f e3 3f a8 5f 9b 33 b3 4a e0 3f
       0.6131595391153168 0.5091186531017131
000030 5a 95 45 99 87 94 d1 3f 42 d0 dd 5f 52 fa f2 3f
       0.2746905323786756 1.186113714674335
000040 9a a5 b8 43 54 43 ea 3f 0c d4 b3 62 d0 ab f7 3f
       0.8207188913994969 1.479446778828108
000050 78 0d b7 e0 d2 cc ef 3f 5c e1 f3 d2 4b 15 e1 3f
       0.9937528981176191 0.5338496322793094

1.bias f8 [12]
000000 22 8e 5e 67 1c fe aa 3f 9e 8e c6 aa 24 71 ed bf
       0.05271996270974123 -0.9200614295445637
000010 78 35 a8 2f c6 42 c7 3f 25 03 3a 36 3e ca f1 bf
       0.1817252857876317 -1.1118757360674831
000020 b6 db 4a 6d 9f 2f c3 bf d8 d6 77 d5 d7 c3 ca bf
       -0.14989083134216025 -0.2091016571354689
000030 ba 97 05 d7 b1 a7 a5 bf 8a fa 8e 43 4b 4c f5 bf
       -0.04229503392961882 -1.331126464748794
000040 e6 76 11 1b 5f fe eb bf ae 3e a9 14 3f f6 f3 bf
       -0.8748012093235189 -1.2476187522005762
000050 10 b5 8d 93 4a 39 f7 bf 54 17 aa 59 5e 2b e8 bf
       -1.4514871372042002 -0.7552940131433652

1.running_mean f8 [12]
000000 14 fc f6 ba 29 d8 a9 bf 24 da a2 8d d7 ee a8 bf
       -0.050477317879533384 -0.0486972198863678
000010 e4 46 04 7d 9d 5b d4 bf f8 53 3c a9 dd 58 c3 3f
       -0.3180917473665501 0.15114947093448428
000020 83 23 82 9f 28 ce da 3f d6 e9 3e c1 10 a2 ad 3f
       0.4188329274843953 0.05787708624798753
000030 71 26 70 67 b1 40 d2 3f 4f ee 5b 70 21 d6 ca bf
       0.2851985464227261 -0.20965974794659067
000040 2e 23 10 18 93 53 ce bf cd d2 14 b6 d4 15 d3 3f
       -0.23692549395516366 0.29820745259648335
000050 3b 66 69 ed 1c b2 bf 3f 10 96 31 d2 f5 84 33 bf
       0.1238115386599014 -0.00029784203997559964

1.running_var f8 [12]
000000 72 c6 cc f4 be 21 2b 40 5a d1 11 7d 2e 18 25 40
       13.565910005566568 10.547229679512999
000010 20 60 9a 48 92 75 27 40 f8 72 6a 4a 2f e7 28 40
       11.729631680340447 12.451532674307131
000020 ea 54 92 08 12 4f 26 40 93 6d d3 ab 5d fb 20 40
       11.154434459555393 8.490949029501996
000030 ef cd 15 ab 56 f6 27 40 00 78 31 75 92 f3 2f 40
       11.981129976665185 15.975726759232202
000040 9c bc 99 64 0e 6d 24 40 54 ad c5 ea b8 16 2b 40
       10.21300043465299 13.544379555349828
000050 b3 9f 34 b1 07 52 3c 40 b6 ac f3 d2 b8 70 23 40
       28.320429873798002 9.720160095448914

3.weight f8 [12, 12]
000000 e6 98 e2 59 16 47 df 3f 1a 65 f1 8c 48 81 e2 3f
       0.4887138250145554 0.5782816651145908
000010 90 ce 35 74 c8 2d d8 3f de 18 ee a2 7f 1c d6 bf
       0.3777943739762373 -0.3454894152749953
000020 2a 48 72 76 c3 4f db 3f e6 27 f4 2d c6 6d a6 3f
       0.4267433792784937 0.04380626021345772
000030 e0 c7 8e 75 e0 a6 cb 3f 8a 88 bb dd 67 32 d2 3f
       0.21603017559169668 0.2843265214306788
000040 64 ab bf 77 5f 7e f9 bf 48 60 7f 05 c8 96 c3 bf
       -1.5933527639087623 -0.15303898113666237
000050 70 7b 61 ea 8c a7 b1 bf ee 85 e4 2a ee 6d ed 3f
       -0.0689628669947362 0.9196692311999735
000060 5a 9f cf 0e b5 e9 d8 3f 50 14 a3 28 56 95 d4 bf
       0.38926435896290956 -0.3216147801252349
000070 3e c1 03 27 6e 28 d5 3f 5d 0a d9 ef c1 1c d0 bf
       0.33059266862894165 -0.2517552225364506
000080 54 19 45 dd 3e 9a d7 3f 10 f1 3e 01 21 ce d1 bf
       0.36878940208807376 -0.2782061111609133
000090 62 d5 7f c6 cd 88 d3 3f 58 e4 d3 3c 31 58 d3 3f
       0.30522484192564125 0.30225783291058894
0000a0 5a d1 39 66 35 2d 03 c0 7c 7f 28 7d 9c a3 00 c0
       -2.397074507369479 -2.07988832263794
0000b0 da 30 d2 23 9d 10 bc bf 60 94 f9 b5 db 5a f6 3f
       -0.10962850689446971 1.397182188834698
0000c0 64 24 9b 4a fa 0b e4 3f 0c 0e f7 76 cd e0 e8 bf
       0.6264621216915995 -0.77744172320712
0000d0 82 66 e2 81 5a 3c d9 3f f0 10 10 9e 12 f7 f0 bf
       0.3943086880113712 -1.060320489342356
0000e0 ea 49 b7 fd a1 4e ed 3f cc 0d a8 6f 30 c6 b3 bf
       0.9158487277402945 -0.07724287725436979
0000f0 b0 0c b7 f1 5c 11 bc 3f a2 da 11 6a fd 5f de 3f
       0.10963993932004956 0.4746087585294082
000100 56 82 9d ca 93 2f ba bf e2 6e bc 69 f2 0d e7 bf
       -0.10228847214376321 -0.7204525056035573
000110 40 df d3 66 df 28 ee 3f 3a 5e 06 0d e0 6a d1 3f
       0.9424893387176567 0.27214814445457913
000120 56 9e 2a c7 09 4e de 3f 4e 63 9e a0 47 de e6 bf
       0.47351307344294946 -0.71463376398888
000130 f6 9d e5 38 e9 2e aa 3f a8 22 26 34 f1 ea f8 bf
       0.051139152713229594 -1.5573589360302922
000140 f2 49 eb 09 0e 34 e4 3f 0a 0c ca 63 f8 c1 c1 bf
       0.6313543504459729 -0.13873200294992244
000150 c9 13 68 8f ec a0 a3 3f 0c 96 e3 73 13 7c d1 3f
       0.03833712816780339 0.2731979972580525
000160 a2 10 45 c4 88 04 c4 bf c4 99 53 5a 6f 0e cc bf
       -0.15638837417111967 -0.21919052038647469
000170 b0 e5 c5 de c4 c6 f6 3f 80 16 07 cc 24 ca c6 3f
       1.4235275938102454 0.17804393732346924
000180 ce 93 f0 13 7e db e8 bf 22 5b a8 84 11 7d c7 bf
       -0.7767935170601221 -0.18350428559707505
000190 9d 8d 5d 6e c2 c6 a0 3f 05 0b 67 c1 69 47 92 bf
       0.03276641461595917 -0.01785054438529256
0001a0 b8 4c c2 11 c9 10 de bf 92 d0 43 b0 f1 5d f8 bf
       -0.4697745011737413 -1.5229355702731806
0001b0 66 c8 60 41 bd 64 c0 3f f4 7a 04 2c a1 fa c2 bf
       0.12807431881225567 -0.1482736077241139
0001c0 fa bd ba c7 bd b0 d6 bf ba 55 10 94 5b 44 f4 3f
       -0.35453743462400633 1.2666888984434608
0001d0 9a 5f 5a 55 8d 4c e7 bf 82 e2 87 e1 e3 64 dc 3f
       -0.7280947367716977 0.44365784668438135
0001e0 14 d6 38 57 62 e4 68 3f c0 27 d2 2c be f8 ca bf
       0.0030385895459186327 -0.2107160300113815
0001f0 36 c9 02 0c d8 09 d5 3f 88 38 b0 ad ee 46 c6 3f
       0.32872582600534217 0.1740396831596096
000200 c8 5e fc 8d d7 98 ab 3f bc cc b1 23 3d 47 e5 bf
       0.05390046699738843 -0.664946145740394
000210 38 df 84 a3 3b fb d3 3f ea 3b 65 8a 98 b4 09 c0
       0.312209043203882 -3.213181573118608
000220 a4 5a 39 d3 83 11 f9 bf 86 5e ee ea b7 aa c0 bf
       -1.5667761088313137 -0.13020991297957013
000230 ac 34 9d f8 99 b5 e8 bf ac 0d 62 50 2c df e0 3f
       -0.7721681457275245 0.5272428102475053
000240 b5 68 44 55 d6 b6 d0 3f 48 d2 ff 01 6a 35 dc bf
       0.2611594994247171 -0.4407601375126302
000250 4a 2c ed f3 73 e7 d9 3f da 96 a5 64 9e 8e dd 3f
       0.4047517664045627 0.46182975605766574
000260 a0 ec af 4a e4 a7 d2 3f 0c b4 d7 73 12 ba d6 bf
       0.2914973000876646 -0.355106938483744
000270 d8 a7 64 10 f5 c6 dd 3f 40 a5 01 df a0 a9 e5 3f
       0.46526838875672416 0.6769565921396534
000280 1e bf 87 1a 2a 3f ca 3f a0 57 9d 7e 57 97 0e c0
       0.20505262656615114 -3.823897351433473
000290 2c cb df 74 e6 d1 c3 bf 3c e9 0a 0c 3c 91 ae bf
       -0.15484314638850927 -0.059701801748320155
0002a0 79 ba bf cd 5d 50 7a 3f a1 08 73 e9 d5 83 a4 bf
       0.006424299641351377 -0.04006832575534359
0002b0 38 0b b2 83 2a 30 b6 3f 78 e8 56 4b 72 de d4 3f
       0.0866724559328248 0.32607705457088043
0002c0 9a e8 9a 33 d5 40 b3 bf be 91 64 a0 ca 99 a9 bf
       -0.07520802030458854 -0.05000146110458868
0002d0 60 8e f8 c8 14 5f d7 3f 74 3f cf 03 ac 81 e1 3f
       0.36517829538408897 0.5470790933995731
0002e0 6a e8 a8 28 00 e5 c8 3f 3a 1e f8 40 7c 17 10 c0
       0.1944885443243181 -4.0229349280776265
0002f0 42 7f 9a 4d c8 1a 8b 3f e8 5d 7d d6 4e 53 c5 bf
       0.013234677189131742 -0.16660485718851636
000300 24 ea 90 5a 26 9d d0 3f fc e3 d2 b1 38 44 da bf
       0.25959166378348386 -0.4104139076767408
000310 f8 f4 85 d8 18 13 d5 3f 14 5b 86 8b f3 05 d8 bf
       0.32929059166765695 -0.375363241438593
000320 1c fc c0 df 0e 34 d0 3f 9e fb 38 d0 54 e8 cf bf
       0.2531773743721162 -0.24927768866652128
000330 94 20 04 f3 01 ba d1 3f a2 f3 d9 21 af 4c 05 c0
       0.2769780038074796 -2.662443413223131
000340 82 f1 4a 50 f7 0c e2 bf 62 7d 37 4e d9 d8 f6 bf
       -0.564082772084973 -1.427941613706786
000350 83 c7 41 fd a6 81 d0 bf de e2 c3 8b 30 15 e4 3f
       -0.2579133485042961 0.6275866250790292
000360 1e 0d 25 c2 f3 95 e8 bf cc 46 3b b6 2f 3f dc 3f
       -0.7683047096146856 0.4413565902333232
000370 47 d3 8b e0 76 84 c3 3f bc d5 0c e4 74 9a ba 3f
       0.1524799915711361 0.10391932075147897
000380 2c f9 11 69 c0 71 d6 bf f4 2d ec a5 28 48 f7 bf
       -0.3506928468776944 -1.4551168900824196
000390 30 ab 17 f6 6d 18 c7 3f 4e 58 d7 ce a9 e9 e6 bf
       0.18043303028329083 -0.7160233535639777
0003a0 f6 11 a2 2e 24 2a e4 bf d0 ec 1c 76 73 38 f0 3f
       -0.6301442061235878 1.0137819875515568
0003b0 36 e8 20 9d 2e b2 ca bf 36 98 41 5e 68 8f e0 3f
       -0.20856268570224906 0.5175058213178605
0003c0 34 da c5 e8 13 89 e0 3f 02 e9 b2 92 77 ea e5 bf
       0.5167331262917458 -0.6848714699947609
0003d0 27 49 fe ea ef 0b c0 3f e4 b7 b8 9e 85 c4 f8 bf
       0.12536429380686195 -1.5479789924679546
0003e0 76 8d eb db 89 43 e8 3f ce 7a 40 83 2a a9 c1 bf
       0.7582444472613321 -0.13797503861220267
0003f0 06 ff 9c d7 77 93 61 3f 64 00 c0 fb 2c 2a d8 3f
       0.002145513598321605 0.3775742014404442
000400 46 7d 1f 32 27 49 c8 bf 4c 9c 7d c4 ca 01 cf bf
       -0.18973245570576064 -0.2422421893527108
000410 b4 22 dc 0d 4a 0e f6 3f a6 da f4 ed ff 62 cf 3f
       1.378488592281582 0.24520873183219755
000420 37 df 32 ec 06 41 e2 bf dc f4 ca 2f e0 4c c3 bf
       -0.5704378712898465 -0.15078356107361557
000430 54 5e 89 3f ad 53 e6 3f b6 9d e5 a5 a4 13 b7 3f
       0.6977144471120007 0.09014348077982146
000440 06 73 be d0 b2 76 c6 bf 0e 00 05 6d 1b a5 ec bf
       -0.17549739067626308 -0.8951546792304741
000450 be 22 76 18 2b d4 e6 3f 82 1e 62 cc d5 00 fb bf
       0.7133994558108367 -1.6877038940164373
000460 ba 12 88 33 c1 1f d3 bf a6 e8 9c 8a 12 6b 01 c0
       -0.29881315262199915 -2.1772814587721596
000470 3c b8 bc e5 e0 ff ed bf aa 92 19 8c 79 06 d8 3f
       -0.937485169129793 0.3753951900637654

4.weight f8 [12]
000000 0c ff 9a f5 f3 ef e7 3f 64 a2 06 4a 8b 50 f2 3f
       0.7480411335927513 1.1446640864980049
000010 0e 85 b2 0f b9 7f eb 3f 8e 80 a3 15 82 ca eb 3f
       0.8593411738003469 0.8684702322607494
000020 b8 7a 17 14 33 c3 ec 3f 26 d6 67 c2 2d 58 ed 3f
       0.8988280670563062 0.9170140072807882
000030 54 a9 8c 81 3d a6 f0 3f a6 c5 0f a8 04 d0 f0 3f
       1.0405860004926426 1.0507856907755495
000040 4a c6 72 cd b3 3e 01 40 66 d2 a4 32 67 e8 ef 3f
       2.1556163836146753 0.9971195210587893
000050 16 8c 47 4b 5e 4c f1 3f 6c 78 93 1d bb bd f2 3f
       1.0811446133236635 1.1713210254015634

4.bias f8 [12]
000000 b8 57 eb e5 13 68 d9 bf bc f9 4f f3 ae 6f b0 bf
       -0.3969774003320441 -0.06420415344471214
000010 44 65 14 39 35 5b a1 bf 8e a4 de 2f 31 16 c4 bf
       -0.03389898607037847 -0.15692725026500337
000020 3a f0 47 98 59 9e b2 3f 22 66 13 01 85 09 d3 bf
       0.07272872894094543 -0.2974560270791661
000030 44 54 aa 3e a0 9e b5 bf 24 9b b4 e3 32 be bd 3f
       -0.08445169000545244 0.1161834531709301
000040 f6 28 b3 df 39 9b ee bf b8 9d 66 0b 57 48 e3 bf
       -0.9564484948289464 -0.6025805685684906
000050 b8 e0 f2 ac 79 af e0 bf 28 48 40 c4 9f c3 e2 bf
       -0.5214203241257769 -0.5863798935918156

4.running_mean f8 [12]
000000 fc e6 fe 25 5f d4 c3 3f fe e1 15 35 ed 18 d0 bf
       0.1549185691381395 -0.2515213983929526
000010 7c f8 18 b0 4a 73 d1 3f f8 47 05 cc f6 41 c7 3f
       0.2726618499472193 0.18170056306786342
000020 5f b9 84 d9 02 b0 bd bf 55 ce a1 48 da f8 d1 bf
       -0.1159669667292511 -0.28081376164411626
000030 04 5d b5 d3 53 43 d7 bf 20 cc ec 59 37 28 e2 bf
       -0.36348434137967467 -0.567409206042047
000040 f2 57 74 69 2e 26 d1 bf b6 ad 6a b6 8e 3a c3 bf
       -0.2679554014042643 -0.15022453219476767
000050 15 f3 76 06 44 f9 cc 3f b0 1f cc a5 41 9a dc bf
       0.22635698619515013 -0.4469150656809644

4.running_var f8 [12]
000000 7d 54 06 c4 19 5d cd 3f ac 83 7c 65 d0 c7 f0 3f
       0.22940370627899034 1.0487827266990548
000010 14 31 1e 65 c5 84 d5 3f 84 6f 37 db cc 99 c2 3f
       0.33622870325849985 0.14531861022885206
000020 99 b8 ca 50 79 f9 e4 3f 3d 22 1b bc 84 c6 e8 3f
       0.6554533555952445 0.7742332147545948
000030 86 4e 68 b0 01 4c 04 40 d5 ca 1d 3b 0b f8 05 40
       2.5371125966865433 2.7461151712862866
000040 c7 43 44 95 9c 44 de 3f 3a 5b 14 63 a1 4b e3 3f
       0.4729377229387492 0.6029822287699524
000050 63 8a 82 43 06 d2 c7 3f c3 8f a1 73 9c ac e6 3f
       0.18609693809874547 0.708570695726387

6.weight f8 [2, 12]
000000 50 22 6b 03 b7 8e c4 3f be ad 55 4b 59 e1 d3 bf
       0.16060531298559733 -0.31062919957068036
000010 76 ae 6a dc a6 72 a7 3f a4 f4 5d 0f d1 4f dc 3f
       0.04579659882196278 0.4423716211384294
000020 7c 90 7f 3c 2d a8 e0 3f c0 e1 3d e5 96 f0 d5 3f
       0.5205293828589812 0.34280941378485963
000030 f0 7f 60 55 b9 ba dc 3f e0 61 d7 44 33 b8 e7 bf
       0.4488967260131167 -0.7412353844220512
000040 c2 b3 80 34 f0 c9 fe bf a2 65 53 b7 44 b8 e3 bf
       -1.9243013430488962 -0.6162437038976132
000050 d8 e4 4a f7 4d 0c db bf 0c 78 c6 58 b8 23 f3 bf
       -0.42262601041472925 -1.196220728662868
000060 0a 5a 3e f0 35 18 da bf 7e e5 b1 d4 67 f0 e0 3f
       -0.4077277036789445 0.5293463854024336
000070 fc e6 a8 3e a6 a7 e4 3f 26 93 e2 85 2d b5 de 3f
       0.6454650138686868 0.4798082168074863
000080 1c 5a 33 57 5f 80 b3 bf 75 72 71 a5 15 93 ad 3f
       -0.07617755774422402 0.05776279110498176
000090 48 b1 b1 bf 5d 4a e3 bf 9c a8 80 8e d7 14 bd 3f
       -0.6028279060388195 0.11359927395884245
0000a0 e6 44 9f dc b1 e3 00 c0 4e 8b df a0 b8 76 91 3f
       -2.111179088221081 0.01705444795505722
0000b0 d2 4e f8 9e 6e 2e e7 bf 75 e1 ac c3 fd c6 ad 3f
       -0.7244179825670136 0.05815880788435638

7.weight f8 [2]
000000 3c a4 4f a0 64 c9 f2 3f 28 ce 3b 17 8b 41 f6 3f
       1.1741682302620253 1.391001787906939

7.bias f8 [2]
000000 94 a7 35 31 69 22 de bf 3c cb 29 24 b7 66 e0 bf
       -0.4708502750933061 -0.5125385004342671

7.running_mean f8 [2]
000000 60 fc db 7a f6 a8 e8 bf 73 15 df c7 07 78 d5 bf
       -0.7706253432842338 -0.33545107382482015

7.running_var f8 [2]
000000 7e ea 9c a9 f6 85 e8 3f d4 9a cf cd 61 6d d7 3f
       0.7663529694321622 0.3660511503098125
