PCA和神经网络/check_point/Net_decoder_para.pkl (torch, 18415 bytes, 20 tensors)

0.weight f8 [19, 2]
0.3915136456489563 -0.4957219362258911 -0.48059332370758057 -0.2100081443786621 0.03254443407058716 -0.2658237814903259 -0.5557167530059814 -0.19708329439163208
-0.4149969220161438 -0.4034366309642792 0.27519869804382324 -0.2698913812637329 0.19468563795089722 -0.07661193609237671 -0.2994398772716522 -0.005249381065368652
-0.30360910296440125 -0.42262980341911316 -0.05911475419998169 0.5268192887306213 -0.20425164699554443 0.07892966270446777 0.3822963833808899 -0.3259080946445465
-0.6476970911026001 -0.44349879026412964 -0.19390064477920532 -0.10269415378570557 0.6405190825462341 0.17073476314544678 -0.3863705098628998 0.24713772535324097
-0.10097289085388184 0.4698227047920227 -0.3038054406642914 -0.25652703642845154 0.3985770344734192 0.27057212591171265
00000000: 0000 0040 8f0e d93f 0000 0080 e8b9 dfbf
00000010: 0000 0080 0ac2 debf 0000 0000 8ce1 cabf
00000020: 0000 0000 aaa9 a03f 0000 00c0 4103 d1bf
00000030: 0000 0080 6ec8 e1bf 0000 0080 063a c9bf
00000040: 0000 0040 4f8f dabf 0000 00e0 e7d1 d9bf
00000050: 0000 0000 db9c d13f 0000 0080 e645 d1bf
00000060: 0000 0080 75eb c83f 0000 0000 d79c b3bf
00000070: 0000 00e0 052a d3bf 0000 0000 6080 75bf
00000080: 0000 00e0 546e d3bf 0000 00e0 5d0c dbbf
00000090: 0000 0000 4a44 aebf 0000 0020 b4db e03f
000000a0: 0000 0000 eb24 cabf 0000 0000 bc34 b43f
000000b0: 0000 0040 8b77 d83f 0000 00a0 addb d4bf
000000c0: 0000 0040 efb9 e4bf 0000 00c0 4862 dcbf
000000d0: 0000 0080 bcd1 c8bf 0000 0000 2a4a babf
000000e0: 0000 00e0 217f e43f 0000 0000 a3da c53f
000000f0: 0000 0060 4bba d8bf 0000 0080 35a2 cf3f
00000100: 0000 0000 5cd9 b9bf 0000 0040 9311 de3f
00000110: 0000 0060 8c71 d3bf 0000 0060 f06a d0bf
00000120: 0000 0040 4982 d93f 0000 00c0 0d51 d13f

1.weight f8 [19]
1.0 1.0 1.0 1.0 1.0 1.0 1.0 1.0
1.0 1.0 1.0 1.0 1.0 1.0 1.0 1.0
1.0 1.0 1.0
00000000: 0000 0000 0000 f03f 0000 0000 0000 f03f
00000010: 0000 0000 0000 f03f 0000 0000 0000 f03f
00000020: 0000 0000 0000 f03f 0000 0000 0000 f03f
00000030: 0000 0000 0000 f03f 0000 0000 0000 f03f
00000040: 0000 0000 0000 f03f 0000 0000 0000 f03f
00000050: 0000 0000 0000 f03f 0000 0000 0000 f03f
00000060: 0000 0000 0000 f03f 0000 0000 0000 f03f
00000070: 0000 0000 0000 f03f 0000 0000 0000 f03f
00000080: 0000 0000 0000 f03f 0000 0000 0000 f03f
00000090: 0000 0000 0000 f03f

1.bias f8 [19]
0.0 0.0 0.0 0.0 0.0 0.0 0.0 0.0
0.0 0.0 0.0 0.0 0.0 0.0 0.0 0.0
0.0 0.0 0.0
00000000: 0000 0000 0000 0000 0000 0000 0000 0000
00000010: 0000 0000 0000 0000 0000 0000 0000 0000
00000020: 0000 0000 0000 0000 0000 0000 0000 0000
00000030: 0000 0000 0000 0000 0000 0000 0000 0000
00000040: 0000 0000 0000 0000 0000 0000 0000 0000
00000050: 0000 0000 0000 0000 0000 0000 0000 0000
00000060: 0000 0000 0000 0000 0000 0000 0000 0000
00000070: 0000 0000 0000 0000 0000 0000 0000 0000
00000080: 0000 0000 0000 0000 0000 0000 0000 0000
00000090: 0000 0000 0000 0000

1.running_mean f8 [19]
-0.05418973798970718 -0.19325502443356274 -0.07579141404627003 -0.20894310967587915 -0.23736327413300767 -0.013158999170213218 0.02697239603789388 -0.08054860705980292
-0.21411130310680093 0.15162425854554257 -0.028756827974353312 -0.0027239132866318386 -0.31137894253502 -0.0836721289860131 0.22292065991731944 -0.023348768944029243
0.12250835302506953 -0.16144684821870864 0.19087039823169832
00000000: c2a2 e3e0 c1be abbf 2a6b dda4 94bc c8bf
00000010: 8b75 a5ec 1067 b3bf 1027 64d7 a5be cabf
00000020: b21c d675 eb61 cebf 755a acf8 1af3 8abf
00000030: 1593 82db a69e 9b3f cf69 0f61 d59e b4bf
00000040: 8019 46ca ff67 cbbf 8ade dd77 6c68 c33f
00000050: c205 bf0e 6e72 9dbf 6291 76cf 7550 66bf
00000060: 5d76 b6f1 a1ed d3bf 0be5 9461 896b b5bf
00000070: c74b f907 aa88 cc3f 7adc 105c bde8 97bf
00000080: 45c0 ba19 b55c bf3f ea20 9252 4aaa c4bf
00000090: 76fe 16f3 706e c83f

1.running_var f8 [19]
0.10036069279132684 0.05891866104899511 0.021634555656391607 0.07214864931723519 0.08535912039198763 0.0351460462035095 0.008659290395648321 0.016941723819689385
0.07438031653124855 0.08490134709954034 0.009466268028737667 0.05767674418668906 0.14459987586426307 0.010685312611909305 0.08830791371383458 0.04501742593646245
0.06849649689749741 0.03897713378217646 0.05435081853566878
00000000: 06b8 5705 3db1 b93f deb9 a834 962a ae3f
00000010: e0e0 0774 5e27 963f 10a2 4479 5578 b23f
00000020: cdb8 7f66 18da b53f f438 0e9e a9fe a13f
00000030: 596f 7248 f6bb 813f be45 f9d6 2b59 913f
00000040: 68c4 f7a2 960a b33f 70ca 2d3d 18bc b53f
00000050: 19ee c9fc 0c63 833f 890d 0b64 ce87 ad3f
00000060: 99dc ebac 3f82 c23f 01ba b961 2ee2 853f
00000070: 3500 61f1 589b b63f e65e 4b28 860c a73f
00000080: 9bb8 1086 fc88 b13f 7cc4 c595 cff4 a33f
00000090: ec38 3ed8 ded3 ab3f

3.weight f8 [19, 19]
0.21335379779338837 0.052552804350852966 0.06662888824939728 -0.13124555349349976 0.018877238035202026 0.14959560334682465 0.0988195389509201 0.009984880685806274
0.1569381207227707 -0.20045967400074005 0.19876141846179962 -0.0979701578617096 -0.025853753089904785 0.045690134167671204 -0.22089725732803345 0.20456553995609283
-0.19386005401611328 0.15895070135593414 -0.14651335775852203 0.1570117324590683 0.19361545145511627 -0.08540131151676178 0.1572834700345993 -0.15109461545944214
0.005788519978523254 0.06459932029247284 -0.09988538920879364 0.14224906265735626 -0.2007865458726883 -0.1599259376525879 0.058989837765693665 0.21307356655597687
0.1635061651468277 0.10358543694019318 -0.020615562796592712 0.03815107047557831 -0.030085444450378418 -0.06214003264904022 -0.05601188540458679 -0.11698389053344727
0.1829850822687149 0.06021811068058014 0.13595159351825714 0.014897674322128296 0.06361155211925507 0.09558723866939545 -0.15987221896648407 -0.050284355878829956
0.13275711238384247 -0.21635587513446808 0.22405566275119781 -0.03375719487667084 -0.06449152529239655 -0.050192102789878845 0.19946081936359406 -0.1728137731552124
-0.12379436939954758 -0.1758023500442505 -0.030631259083747864 0.12958241999149323 0.03316138684749603 0.07486592233181 0.06289590895175934 0.07495911419391632
-0.1846396028995514 -0.0314851850271225 0.18611015379428864 -0.20701780915260315 0.08786739408969879 0.14556924998760223 -0.17368446290493011 -0.03527998924255371
-0.21814262866973877 -0.08289402723312378 0.0967399924993515 -0.04563918709754944 -0.0637139081954956 0.2097160369157791 -0.018174633383750916 -0.07039295136928558
-0.21738970279693604 -0.19486746191978455 -0.07245795428752899 -0.19596907496452332 0.020967528223991394 0.04735298454761505 -0.006040215492248535 -0.17931483685970306
0.16960467398166656 0.12385626137256622 0.19493944942951202 0.10100962221622467 -0.05706620216369629 0.12404225766658783 -0.04992353916168213 -0.09242218732833862
0.16410045325756073 -0.15576156973838806 -0.04688328504562378 -0.050756990909576416 0.1707465797662735 -0.11118434369564056 -0.0032933801412582397 0.05365265905857086
0.22274570167064667 0.09495319426059723 0.04901908338069916 0.12623609602451324 -0.08507195115089417 0.053479090332984924 -0.08194456994533539 -0.18015743792057037
-0.17762188613414764 -0.06845654547214508 0.14089863002300262 -0.12107256799936295 -0.009463965892791748 -0.13313773274421692 0.16630448400974274 -0.0011448860168457031
-0.22005987167358398 -0.01560904085636139 0.12716437876224518 0.14927296340465546 -0.08496354520320892 -0.013150542974472046 -0.16416805982589722 -0.02960728108882904
-0.0028416216373443604 -0.14645901322364807 -0.13326039910316467 -0.07415823638439178 0.09989480674266815 0.20754732191562653 0.03922317922115326 -0.2183840125799179
0.0449817031621933 -0.21744699776172638 -0.19832690060138702 0.22108645737171173 0.12333981692790985 -0.05190132558345795 0.20050524175167084 0.1404508501291275
-0.1550634801387787 -0.01537168025970459 -0.06419335305690765 -0.0025311261415481567 -0.09413255751132965 -0.00922459363937378 0.09020210802555084 0.09285227954387665
0.198832169175148 -0.03839096426963806 0.03960783779621124 0.05136139690876007 -0.1373918205499649 -0.21335789561271667 0.0638752430677414 -0.2163858413696289
-0.20888295769691467 -0.03947800397872925 0.09909279644489288 0.1792178899049759 -0.18778494000434875 -0.1502475142478943 0.10354913771152496 -0.1629694700241089
-0.0790213793516159 0.08210538327693939 0.09983991086483002 -0.175713449716568 -0.08562290668487549 -0.10035723447799683 -0.10390499234199524 -0.030800938606262207
0.21370069682598114 -0.17084968090057373 0.17300383746623993 -0.15995100140571594 0.010055005550384521 -0.22152632474899292 0.14348392188549042 0.139997199177742
-0.07769259810447693 -0.11455400288105011 -0.024121031165122986 -0.1117059588432312 -0.0781206488609314 -0.07799266278743744 -0.12787941098213196 0.10012419521808624
0.12025700509548187 0.07818339765071869 -0.06589753925800323 0.06871728599071503 -0.1204509362578392 -0.13923422992229462 -0.08192424476146698 0.09035517275333405
-0.06859998404979706 0.19216378033161163 0.18988750874996185 0.21968834102153778 0.0192815363407135 0.09543584287166595 0.021753564476966858 -0.18315155804157257
-0.003023788332939148 0.12939007580280304 0.055434420704841614 0.08368770778179169 -0.2249586135149002 0.08191831409931183 0.2160145491361618 -0.034660130739212036
0.13811497390270233 0.18766631186008453 -0.059064313769340515 -0.18298929929733276 0.20885811746120453 0.10422544181346893 -0.14823749661445618 0.14445547759532928
-0.147758349776268 0.20246608555316925 0.16116909682750702 -0.03519909083843231 0.041908130049705505 0.06557823717594147 0.10665436089038849 0.0714651495218277
0.03364165127277374 0.07515819370746613 0.16702567040920258 -0.22723501920700073 0.13014446198940277 -0.057443082332611084 -0.11721495538949966 0.061669185757637024
-0.1711718738079071 0.048946574330329895 0.054354265332221985 -0.22610163688659668 0.08336098492145538 0.08328332006931305 -0.1554819643497467 -0.16419127583503723
0.1964821070432663 -0.04504545032978058 -0.031123533844947815 -0.17688259482383728 0.010329797863960266 0.19148428738117218 -0.14399497210979462 0.0793476551771164
00000000: 0000 0060 2d4f cb3f 0000 0080 33e8 aa3f
00000010: 0000 0040 970e b13f 0000 0080 a7cc c0bf
00000020: 0000 0000 8e54 933f 0000 00e0 f225 c33f
00000030: 0000 00c0 3c4c b93f 0000 0000 f472 843f
00000040: 0000 0060 8c16 c43f 0000 00a0 a9a8 c9bf
00000050: 0000 00a0 0371 c93f 0000 0080 9214 b9bf
00000060: 0000 0000 6879 9abf 0000 0080 b264 a73f
00000070: 0000 0080 5c46 ccbf 0000 0020 342f ca3f
00000080: 0000 0000 68d0 c8bf 0000 0020 7f58 c43f
00000090: 0000 0020 f3c0 c2bf 0000 00e0 f518 c43f
000000a0: 0000 0020 64c8 c83f 0000 0040 dcdc b5bf
000000b0: 0000 0060 dd21 c43f 0000 0080 1157 c3bf
000000c0: 0000 0000 b4b5 773f 0000 00c0 9489 b03f
000000d0: 0000 00c0 1692 b9bf 0000 00a0 3735 c23f
000000e0: 0000 00a0 5fb3 c9bf 0000 0000 7478 c4bf
000000f0: 0000 0080 ea33 ae3f 0000 00a0 fe45 cb3f
00000100: 0000 0020 c5ed c43f 0000 0040 9384 ba3f
00000110: 0000 0000 3f1c 95bf 0000 0080 8988 a33f
00000120: 0000 0000 b8ce 9ebf 0000 0080 d1d0 afbf
00000130: 0000 0000 97ad acbf 0000 0000 a8f2 bdbf
00000140: 0000 0020 0e6c c73f 0000 0080 e8d4 ae3f
00000150: 0000 00a0 dc66 c13f 0000 0000 ac82 8e3f
00000160: 0000 00c0 d848 b03f 0000 00c0 6778 b83f
00000170: 0000 0060 b176 c4bf 0000 0000 dfbe a9bf
00000180: 0000 0060 2ffe c03f 0000 00a0 8cb1 cbbf
00000190: 0000 0020 dbad cc3f 0000 0080 9f48 a1bf
000001a0: 0000 0040 8482 b0bf 0000 0080 c7b2 a9bf
000001b0: 0000 00a0 ee87 c93f 0000 0000 c31e c6bf
000001c0: 0000 00e0 fcb0 bfbf 0000 0000 b180 c6bf
000001d0: 0000 0000 cd5d 9fbf 0000 0020 2896 c03f
000001e0: 0000 0080 87fa a03f 0000 00c0 692a b33f
000001f0: 0000 0040 f219 b03f 0000 0040 8530 b33f
00000200: 0000 0040 45a2 c7bf 0000 0080 d31e a0bf
00000210: 0000 0020 75d2 c73f 0000 0040 8f7f cabf
00000220: 0000 0040 7a7e b63f 0000 0060 03a2 c23f
00000230: 0000 00e0 4a3b c6bf 0000 0000 3810 a2bf
00000240: 0000 0000 19ec cbbf 0000 0000 8b38 b5bf
00000250: 0000 00c0 f3c3 b83f 0000 0000 055e a7bf
00000260: 0000 0000 8e4f b0bf 0000 00a0 f9d7 ca3f
00000270: 0000 0000 5f9c 92bf 0000 00c0 4505 b2bf
00000280: 0000 0000 6dd3 cbbf 0000 00c0 6af1 c8bf
00000290: 0000 00c0 9a8c b2bf 0000 00c0 8315 c9bf
000002a0: 0000 0000 8378 953f 0000 0080 a63e a83f
000002b0: 0000 0000 a0bd 78bf 0000 00e0 c9f3 c6bf
000002c0: 0000 0020 9bb5 c53f 0000 0040 0bb5 bf3f
000002d0: 0000 00a0 c6f3 c83f 0000 0040 c4db b93f
000002e0: 0000 0000 c837 adbf 0000 00c0 3bc1 bf3f
000002f0: 0000 0000 948f a9bf 0000 0000 fba8 b7bf
00000300: 0000 0060 3e01 c53f 0000 00c0 feef c3bf
00000310: 0000 0000 1601 a8bf 0000 0000 d2fc a9bf
00000320: 0000 0020 06db c53f 0000 00c0 9376 bcbf
00000330: 0000 0000 b8fa 6abf 0000 0080 5c78 ab3f
00000340: 0000 0060 ee82 cc3f 0000 0040 da4e b83f
00000350: 0000 0080 0719 a93f 0000 0020 8128 c03f
00000360: 0000 0080 46c7 b5bf 0000 0080 9c61 ab3f
00000370: 0000 00c0 51fa b4bf 0000 0020 660f c7bf
00000380: 0000 0060 50bc c6bf 0000 0040 5e86 b1bf
00000390: 0000 0060 f708 c23f 0000 00a0 9cfe bebf
000003a0: 0000 0000 d861 83bf 0000 0040 a80a c1bf
000003b0: 0000 0020 7749 c53f 0000 0000 00c2 52bf
000003c0: 0000 0000 ec2a ccbf 0000 0000 a2f7 8fbf
000003d0: 0000 0020 ec46 c03f 0000 0060 601b c33f
000003e0: 0000 00c0 2bc0 b5bf 0000 0000 acee 8abf
000003f0: 0000 0080 7503 c5bf 0000 0000 5f51 9ebf
00000400: 0000 0000 5047 67bf 0000 0040 2bbf c2bf
00000410: 0000 0040 ad0e c1bf 0000 00c0 08fc b2bf
00000420: 0000 00c0 b492 b93f 0000 0020 e990 ca3f
00000430: 0000 0080 0f15 a43f 0000 00e0 01f4 cbbf
00000440: 0000 0080 d707 a73f 0000 00a0 4dd5 cbbf
00000450: 0000 00a0 c662 c9bf 0000 00a0 8f4c cc3f
00000460: 0000 00c0 3293 bf3f 0000 0080 cf92 aabf
00000470: 0000 00e0 27aa c93f 0000 0020 4bfa c13f
00000480: 0000 00c0 1ed9 c3bf 0000 0000 307b 8fbf
00000490: 0000 00c0 f96e b0bf 0000 0000 28bc 64bf
000004a0: 0000 0040 1219 b8bf 0000 0000 58e4 82bf
000004b0: 0000 0040 7c17 b73f 0000 00c0 2ac5 b73f
000004c0: 0000 0020 5573 c93f 0000 0000 fba7 a3bf
000004d0: 0000 0080 7a47 a43f 0000 0080 0a4c aa3f
000004e0: 0000 0020 0e96 c1bf 0000 00c0 4f4f cbbf
000004f0: 0000 00c0 205a b03f 0000 0000 88b2 cbbf
00000500: 0000 0040 adbc cabf 0000 0000 7636 a4bf
00000510: 0000 0040 255e b93f 0000 00a0 9cf0 c63f
00000520: 0000 0040 5609 c8bf 0000 0080 4f3b c3bf
00000530: 0000 0040 3282 ba3f 0000 0000 2fdc c4bf
00000540: 0000 00c0 be3a b4bf 0000 00c0 db04 b53f
00000550: 0000 00c0 1b8f b93f 0000 0040 c77d c6bf
00000560: 0000 0000 62eb b5bf 0000 0000 03b1 b9bf
00000570: 0000 0080 8499 babf 0000 0000 488a 9fbf
00000580: 0000 0060 8b5a cb3f 0000 0000 67de c5bf
00000590: 0000 0060 fd24 c63f 0000 0040 4679 c4bf
000005a0: 0000 0000 b897 843f 0000 0080 f95a ccbf
000005b0: 0000 0060 ae5d c23f 0000 00a0 6deb c13f
000005c0: 0000 0080 a9e3 b3bf 0000 0040 6953 bdbf
000005d0: 0000 0000 2fb3 98bf 0000 0000 c398 bcbf
000005e0: 0000 0000 b7ff b3bf 0000 00c0 53f7 b3bf
000005f0: 0000 0040 5a5e c0bf 0000 0040 bda1 b93f
00000600: 0000 00c0 29c9 be3f 0000 00c0 d303 b43f
00000610: 0000 0040 a9de b0bf 0000 00c0 7497 b13f
00000620: 0000 0060 dfd5 bebf 0000 0060 6dd2 c1bf
00000630: 0000 00c0 fcf8 b4bf 0000 0040 8421 b73f
00000640: 0000 00c0 c48f b1bf 0000 00a0 d298 c83f
00000650: 0000 00e0 3b4e c83f 0000 0060 bf1e cc3f
00000660: 0000 0000 8abe 933f 0000 00c0 7b6e b83f
00000670: 0000 0000 9146 963f 0000 00a0 8271 c7bf
00000680: 0000 0000 58c5 68bf 0000 00a0 da8f c03f
00000690: 0000 0080 e661 ac3f 0000 00c0 8e6c b53f
000006a0: 0000 00a0 71cb ccbf 0000 0040 99f8 b43f
000006b0: 0000 0060 5da6 cb3f 0000 0000 f9be a1bf
000006c0: 0000 0060 c0ad c13f 0000 0020 7305 c83f
000006d0: 0000 0080 ad3d aebf 0000 0080 316c c7bf
000006e0: 0000 00e0 dcbb ca3f 0000 00c0 84ae ba3f
000006f0: 0000 0040 72f9 c2bf 0000 0060 847d c23f
00000700: 0000 00e0 bee9 c2bf 0000 00a0 68ea c93f
00000710: 0000 0060 30a1 c43f 0000 0080 9d05 a2bf
00000720: 0000 0080 fb74 a53f 0000 0040 bcc9 b03f
00000730: 0000 0040 b34d bb3f 0000 0040 8a4b b23f
00000740: 0000 0080 7a39 a13f 0000 0040 913d b33f
00000750: 0000 00e0 1861 c53f 0000 0080 0916 cdbf
00000760: 0000 00e0 92a8 c03f 0000 0000 2e69 adbf
00000770: 0000 00a0 cc01 bebf 0000 0080 1a93 af3f
00000780: 0000 00c0 f5e8 c5bf 0000 0080 860f a93f
00000790: 0000 0080 52d4 ab3f 0000 0000 e6f0 ccbf
000007a0: 0000 0040 2557 b53f 0000 0040 0e52 b53f
000007b0: 0000 0040 d5e6 c3bf 0000 0040 3804 c5bf
000007c0: 0000 0060 5326 c93f 0000 0080 3210 a7bf
000007d0: 0000 0000 d9de 9fbf 0000 00c0 16a4 c6bf
000007e0: 0000 0000 ca27 853f 0000 00a0 8e82 c83f
000007f0: 0000 0060 6d6e c2bf 0000 00c0 2050 b43f

4.weight f8 [19]
1.0 1.0 1.0 1.0 1.0 1.0 1.0 1.0
1.0 1.0 1.0 1.0 1.0 1.0 1.0 1.0
1.0 1.0 1.0
00000000: 0000 0000 0000 f03f 0000 0000 0000 f03f
00000010: 0000 0000 0000 f03f 0000 0000 0000 f03f
00000020: 0000 0000 0000 f03f 0000 0000 0000 f03f
00000030: 0000 0000 0000 f03f 0000 0000 0000 f03f
00000040: 0000 0000 0000 f03f 0000 0000 0000 f03f
00000050: 0000 0000 0000 f03f 0000 0000 0000 f03f
00000060: 0000 0000 0000 f03f 0000 0000 0000 f03f
00000070: 0000 0000 0000 f03f 0000 0000 0000 f03f
00000080: 0000 0000 0000 f03f 0000 0000 0000 f03f
00000090: 0000 0000 0000 f03f

4.bias f8 [19]
0.0 0.0 0.0 0.0 0.0 0.0 0.0 0.0
0.0 0.0 0.0 0.0 0.0 0.0 0.0 0.0
0.0 0.0 0.0
00000000: 0000 0000 0000 0000 0000 0000 0000 0000
00000010: 0000 0000 0000 0000 0000 0000 0000 0000
00000020: 0000 0000 0000 0000 0000 0000 0000 0000
00000030: 0000 0000 0000 0000 0000 0000 0000 0000
00000040: 0000 0000 0000 0000 0000 0000 0000 0000
00000050: 0000 0000 0000 0000 0000 0000 0000 0000
00000060: 0000 0000 0000 0000 0000 0000 0000 0000
00000070: 0000 0000 0000 0000 0000 0000 0000 0000
00000080: 0000 0000 0000 0000 0000 0000 0000 0000
00000090: 0000 0000 0000 0000

4.running_mean f8 [19]
0.11854089170500615 0.2333019919925332 0.0236509070626525 -0.1066426489336043 0.0042918891645512755 -0.05643513421609517 -0.1864769514815658 0.06273958381645688
-0.23597546806200723 -0.3767206907529608 0.15972082798094808 0.340336727963139 0.027964891274335532 0.09993939273224603 0.30905044313168095 0.10016339194090403
0.2022559775556681 0.17668125798538226 -0.12252474072151276
00000000: 0097 1c25 b258 be3f f88b d9f4 d6dc cd3f
00000010: 0258 6b81 f137 983f ef54 87c1 ee4c bbbf
00000020: 98cc 9839 5f94 713f 4464 9bdf 10e5 acbf
00000030: ee19 090c 7ade c7bf 7305 a88c b30f b03f
00000040: d107 feb2 7134 cebf f8ab a019 311c d8bf
00000050: 0788 556a bb71 c43f 5bad 0eb3 13c8 d53f
00000060: 7c7e d615 d4a2 9c3f 0efa 5dc7 a095 b93f
00000070: f426 8482 7bc7 d33f 4582 a4dc 4ea4 b93f
00000080: 52d4 821c 86e3 c93f 7082 6ed0 7d9d c63f
00000090: f88a 590a c85d bfbf

4.running_var f8 [19]
0.1450287702459573 0.16416885314259938 0.06377469208116997 0.03585742066994477 0.06234480602997945 0.001784560650463494 0.004512280160211445 0.07175856566156749
0.23297523867490616 0.01728007643341735 0.0049011822298692664 0.11695727942769306 0.12990891491498374 0.003165461902524757 0.197890413953185 0.007458347410103173
0.19064948001777246 0.13784347152376722 0.11892375521575374
00000000: f5bd 9780 4d90 c23f 2278 a227 7c03 c53f
00000010: 9314 cdc8 8953 b03f cc51 3162 e75b a23f
00000020: aacd f28d a8eb af3f c4fd 6968 fd3c 5d3f
00000030: 8cf7 7efb 777b 723f ca6b b9f4 c45e b23f
00000040: 5e79 71f3 21d2 cd3f 049a 9d4c deb1 913f
00000050: 2072 3916 4313 743f 97cb 2b8a e9f0 bd3f
00000060: d264 82f6 daa0 c03f fe73 236b 74ee 693f
00000070: 6977 0f1c 7954 c93f 5b6c 56e3 a48c 7e3f
00000080: 977e d6c0 3367 c83f 2db2 14d9 daa4 c13f
00000090: 0a82 5e87 c971 be3f

6.weight f8 [19, 19]
0.013618290424346924 0.060673102736473083 0.10160167515277863 -0.10570493340492249 0.0235641747713089 -0.12653863430023193 -0.11334287375211716 -0.07952028512954712
0.05259306728839874 -0.11649235337972641 -0.1201271340250969 -0.16283643245697021 0.13456226885318756 0.009991079568862915 -0.054851189255714417 -0.1688343733549118
-0.11185888946056366 0.07834573090076447 0.0362352579832077 0.07286401093006134 0.027386650443077087 0.10954169929027557 0.016918569803237915 0.15753473341464996
-0.22232675552368164 0.11921896040439606 -0.14039164781570435 -0.15167869627475739 -0.1356373429298401 -0.003490760922431946 0.2078021913766861 -0.18050739169120789
0.044466957449913025 0.09908328950405121 0.11546112596988678 0.13934819400310516 0.06855396926403046 -0.14952099323272705 0.169302836060524 -0.11791341006755829
-0.06684371829032898 -0.03462086617946625 -0.006552204489707947 -0.020850270986557007 -0.21788401901721954 -0.1740967184305191 0.11455439031124115 0.14839966595172882
0.22000716626644135 -0.06850628554821014 -0.1351577192544937 0.22372986376285553 0.040288046002388 0.19347994029521942 -0.186201810836792 0.013734683394432068
0.22711758315563202 -0.1435316652059555 -0.13375350832939148 0.21600975096225739 -0.1908099204301834 0.14579640328884125 -0.06942276656627655 -0.15982133150100708
0.14573492109775543 0.11861683428287506 0.09473450481891632 0.014610141515731812 0.08691675961017609 0.002472981810569763 -0.15948958694934845 0.016293898224830627
-0.2127307504415512 -0.11936397105455399 0.060554102063179016 0.1924252063035965 0.018654122948646545 -0.12057696282863617 -0.06687870621681213 0.05938129127025604
-0.17806002497673035 -0.19882981479167938 0.09536416828632355 0.17848505079746246 -0.0716126412153244 -0.11220121383666992 0.12848006188869476 -0.0906522125005722
0.09553052484989166 -0.017667144536972046 -0.06109096109867096 -0.1793166995048523 0.008053958415985107 -0.09801819920539856 -0.020886778831481934 -0.04217773675918579
0.1746954470872879 0.21309451758861542 -0.1627810001373291 0.06548638641834259 0.0763256698846817 0.05571906268596649 0.1186702698469162 0.01559971272945404
0.16267968714237213 0.07549791038036346 -0.21079102158546448 -0.1633683145046234 -0.21091988682746887 0.16449733078479767 -0.08685719966888428 0.2253546267747879
-0.17523345351219177 0.20048074424266815 0.1573304384946823 0.21727107465267181 0.17004097998142242 0.06249465048313141 -0.008983999490737915 -0.16038089990615845
0.2162024825811386 -0.08073234558105469 -0.16068729758262634 -0.141880065202713 -0.08433422446250916 0.07709009945392609 0.11251990497112274 -0.10747364163398743
-0.05946908891201019 -0.1001206487417221 -0.1121044009923935 0.001157328486442566 0.028928682208061218 0.08714459836483002 -0.20729216933250427 0.110345259308815
-0.11937480419874191 0.14929215610027313 0.048930540680885315 -0.08917474746704102 0.0422530323266983 -0.1283072829246521 0.22228775918483734 -0.07266484200954437
0.11840017139911652 -0.1705334484577179 -0.1920301914215088 0.009213536977767944 0.17993517220020294 -0.22184570133686066 0.04850740730762482 -0.13928386569023132
-0.19622935354709625 0.20212750136852264 -0.14275482296943665 -0.11206679046154022 -0.016070157289505005 -0.021797597408294678 -0.20371182262897491 -0.1111585795879364
-0.11495693027973175 -0.21615059673786163 0.19870294630527496 -0.09760130941867828 -0.13938483595848083 -0.14874860644340515 -0.03243604302406311 0.17414535582065582
-0.1896253526210785 -0.2062479555606842 -0.12546516954898834 0.07602827250957489 -0.22078487277030945 -0.04983052611351013 0.06246329843997955 -0.16636613011360168
0.06558610498905182 -0.18876898288726807 0.06174863874912262 0.09593458473682404 0.0877329558134079 -0.15299946069717407 -0.14823833107948303 -0.18651385605335236
-0.21949832141399384 0.16996555030345917 0.029739364981651306 -0.13843576610088348 -0.010029926896095276 0.04204656183719635 -0.02983596920967102 0.0845591276884079
-0.15247051417827606 0.07290898263454437 -0.06587189435958862 -0.02048574388027191 0.018005967140197754 0.18996037542819977 0.11399920284748077 0.10372091829776764
0.08581812679767609 -0.18672364950180054 0.22287313640117645 -0.02372218668460846 0.056463971734046936 -0.011833012104034424 -0.06614893674850464 -0.19678181409835815
-0.13305744528770447 0.14010502398014069 -0.008501052856445312 -0.15059857070446014 0.12184645235538483 0.09321461617946625 -0.018622294068336487 0.03550995886325836
0.09401489794254303 0.17270345985889435 0.0025596022605895996 0.13901428878307343 -0.1305016130208969 -0.10328097641468048 0.0035903900861740112 0.11270307004451752
0.2075972706079483 -0.21728265285491943 0.045348480343818665 -0.21377676725387573 -0.028892740607261658 -0.059002310037612915 -0.07263144850730896 0.132657989859581
-0.031274259090423584 -0.010151103138923645 -0.11827421933412552 0.009112194180488586 -0.15509121119976044 0.13133887946605682 0.1926508992910385 0.02260325849056244
0.05695180594921112 -0.14473557472229004 -0.14374476671218872 -0.11522926390171051 -0.005933642387390137 0.08625657856464386 -0.1575116068124771 -0.1948709785938263
0.07880987226963043 0.18779756128787994 -0.08301597833633423 -0.1868838369846344 -0.20564764738082886 -0.042920634150505066 0.12677158415317535 -0.19444727897644043
00000000: 0000 0000 e8e3 8b3f 0000 0080 8b10 af3f
00000010: 0000 0040 9102 ba3f 0000 0080 7a0f bbbf
00000020: 0000 0000 3521 983f 0000 0000 6b32 c0bf
00000030: 0000 00e0 0904 bdbf 0000 0000 715b b4bf
00000040: 0000 0080 7aed aa3f 0000 0060 71d2 bdbf
00000050: 0000 00e0 a6c0 bebf 0000 0000 d3d7 c4bf
00000060: 0000 0020 5639 c13f 0000 0000 3476 843f
00000070: 0000 0080 7415 acbf 0000 0060 5d9c c5bf
00000080: 0000 00c0 c8a2 bcbf 0000 0040 770e b43f
00000090: 0000 0080 6d8d a23f 0000 0040 37a7 b23f
000000a0: 0000 0000 3f0b 9c3f 0000 00c0 ec0a bc3f
000000b0: 0000 0000 1a53 913f 0000 0020 192a c43f
000000c0: 0000 0000 3475 ccbf 0000 0040 2285 be3f
000000d0: 0000 0080 5af8 c1bf 0000 0020 356a c3bf
000000e0: 0000 0080 905c c1bf 0000 0000 a898 6cbf
000000f0: 0000 0020 4399 ca3f 0000 00c0 dd1a c7bf
00000100: 0000 0080 5fc4 a63f 0000 00c0 855d b93f
00000110: 0000 0040 dc8e bd3f 0000 0060 29d6 c13f
00000120: 0000 00c0 c08c b13f 0000 0000 8123 c3bf
00000130: 0000 0020 b7ab c53f 0000 00c0 922f bebf
00000140: 0000 0080 ab1c b1bf 0000 0080 d3b9 a1bf
00000150: 0000 0000 7cd6 7abf 0000 0000 c659 95bf
00000160: 0000 00a0 9fe3 cbbf 0000 0020 cd48 c6bf
00000170: 0000 00c0 6f53 bd3f 0000 00a0 c2fe c23f
00000180: 0000 00e0 3129 cc3f 0000 00c0 a089 b1bf
00000190: 0000 0020 d94c c1bf 0000 0020 2ea3 cc3f
000001a0: 0000 0080 a2a0 a43f 0000 0060 f3c3 c83f
000001b0: 0000 0000 76d5 c7bf 0000 0000 ee20 8c3f
000001c0: 0000 0060 3012 cd3f 0000 00e0 3e5f c2bf
000001d0: 0000 00c0 d51e c1bf 0000 0020 35a6 cb3f
000001e0: 0000 00a0 756c c8bf 0000 00e0 74a9 c23f
000001f0: 0000 00c0 b0c5 b1bf 0000 0080 0675 c4bf
00000200: 0000 0020 71a7 c23f 0000 0040 ac5d be3f
00000210: 0000 0040 8540 b83f 0000 0000 eceb 8d3f
00000220: 0000 0040 2d40 b63f 0000 0000 3842 643f
00000230: 0000 00a0 276a c4bf 0000 0000 59af 903f
00000240: 0000 00e0 c23a cbbf 0000 0020 a38e bebf
00000250: 0000 0080 f200 af3f 0000 00a0 63a1 c83f
00000260: 0000 0000 111a 933f 0000 00c0 21de bebf
00000270: 0000 0080 f61e b1bf 0000 0080 3967 ae3f
00000280: 0000 00c0 abca c6bf 0000 0060 4173 c9bf
00000290: 0000 0040 c969 b83f 0000 0020 99d8 c63f
000002a0: 0000 00c0 3455 b2bf 0000 0000 38b9 bcbf
000002b0: 0000 00e0 0872 c03f 0000 00c0 fb34 b7bf
000002c0: 0000 0040 b074 b83f 0000 0000 5617 92bf
000002d0: 0000 0080 5047 afbf 0000 0080 d9f3 c6bf
000002e0: 0000 0000 987e 803f 0000 0080 b817 b9bf
000002f0: 0000 0000 5863 95bf 0000 0000 5298 a5bf
00000300: 0000 00a0 6b5c c63f 0000 0060 ae46 cb3f
00000310: 0000 0000 02d6 c4bf 0000 0040 b7c3 b03f
00000320: 0000 0040 148a b33f 0000 0080 3587 ac3f
00000330: 0000 00c0 2c61 be3f 0000 0000 bef2 8f3f
00000340: 0000 0020 b0d2 c43f 0000 00c0 d453 b33f
00000350: 0000 0040 33fb cabf 0000 00c0 40e9 c4bf
00000360: 0000 0040 6cff cabf 0000 00a0 3f0e c53f
00000370: 0000 0000 463c b6bf 0000 00a0 6bd8 cc3f
00000380: 0000 00c0 0c6e c6bf 0000 0060 5aa9 c93f
00000390: 0000 0060 6723 c43f 0000 00e0 89cf cb3f
000003a0: 0000 0020 e7c3 c53f 0000 0080 4cff af3f
000003b0: 0000 0000 3466 82bf 0000 0080 5c87 c4bf
000003c0: 0000 00e0 85ac cb3f 0000 0000 e0aa b4bf
000003d0: 0000 00c0 6691 c4bf 0000 0040 2029 c2bf
000003e0: 0000 0080 ed96 b5bf 0000 0040 2dbc b33f
000003f0: 0000 00c0 1ace bc3f 0000 0080 6483 bbbf
00000400: 0000 0080 bb72 aebf 0000 00c0 81a1 b9bf
00000410: 0000 00c0 dfb2 bcbf 0000 0000 30f6 523f
00000420: 0000 0000 7b9f 9d3f 0000 00c0 1b4f b63f
00000430: 0000 00c0 8c88 cabf 0000 0040 963f bc3f
00000440: 0000 00e0 588f bebf 0000 0060 011c c33f
00000450: 0000 0080 6c0d a93f 0000 0000 28d4 b6bf
00000460: 0000 0080 30a2 a53f 0000 0080 5f6c c0bf
00000470: 0000 00e0 ec73 cc3f 0000 00c0 299a b2bf
00000480: 0000 0040 794f be3f 0000 0040 0ad4 c5bf
00000490: 0000 0000 7294 c8bf 0000 0000 8cde 823f
000004a0: 0000 00a0 1d08 c73f 0000 00a0 7065 ccbf
000004b0: 0000 0080 f6d5 a83f 0000 00c0 0dd4 c1bf
000004c0: 0000 0020 0b1e c9bf 0000 0060 50df c93f
000004d0: 0000 0040 ca45 c2bf 0000 00c0 68b0 bcbf
000004e0: 0000 0000 b274 90bf 0000 0000 1c52 96bf
000004f0: 0000 00a0 3a13 cabf 0000 0080 e374 bcbf
00000500: 0000 0040 d16d bdbf 0000 00a0 d2aa cbbf
00000510: 0000 0020 196f c93f 0000 0040 66fc b8bf
00000520: 0000 00c0 5cd7 c1bf 0000 00c0 310a c3bf
00000530: 0000 0000 759b a0bf 0000 0020 654a c63f
00000540: 0000 00c0 a445 c8bf 0000 0040 5566 cabf
00000550: 0000 0020 3e0f c0bf 0000 00c0 9676 b33f
00000560: 0000 00c0 ad42 ccbf 0000 0000 6383 a9bf
00000570: 0000 0080 30fb af3f 0000 0040 7c4b c5bf
00000580: 0000 0040 40ca b03f 0000 0000 9529 c8bf
00000590: 0000 0080 849d af3f 0000 0040 2b8f b83f
000005a0: 0000 00c0 aa75 b63f 0000 0080 7c95 c3bf
000005b0: 0000 0040 79f9 c2bf 0000 00a0 afdf c7bf
000005c0: 0000 0060 8518 ccbf 0000 0060 6ec1 c53f
000005d0: 0000 0000 ff73 9e3f 0000 0060 43b8 c1bf
000005e0: 0000 0000 928a 84bf 0000 0080 2087 a53f
000005f0: 0000 0000 528d 9ebf 0000 00c0 aaa5 b53f
00000600: 0000 0060 2784 c3bf 0000 00c0 29aa b23f
00000610: 0000 0000 fbdc b0bf 0000 0000 37fa 94bf
00000620: 0000 0000 2870 923f 0000 0020 9f50 c83f
00000630: 0000 0040 0d2f bd3f 0000 0040 748d ba3f
00000640: 0000 0040 2df8 b53f 0000 0080 8fe6 c7bf
00000650: 0000 0060 1b87 cc3f 0000 0000 a14a 98bf
00000660: 0000 0080 d8e8 ac3f 0000 0000 e83b 88bf
00000670: 0000 0000 23ef b0bf 0000 0080 2530 c9bf
00000680: 0000 00c0 0608 c1bf 0000 0020 f6ee c13f
00000690: 0000 0000 0069 81bf 0000 0060 d046 c3bf
000006a0: 0000 0040 5431 bf3f 0000 00c0 e9dc b73f
000006b0: 0000 0000 b911 93bf 0000 0080 5c2e a23f
000006c0: 0000 0040 5c11 b83f 0000 00a0 251b c63f
000006d0: 0000 0000 e0f7 643f 0000 0060 38cb c13f
000006e0: 0000 00e0 46b4 c0bf 0000 0040 9f70 babf
000006f0: 0000 0000 9869 6d3f 0000 00c0 1bda bc3f
00000700: 0000 0020 8c92 ca3f 0000 0000 ebcf cbbf
00000710: 0000 0080 ea37 a73f 0000 0080 095d cbbf
00000720: 0000 0000 0f96 9dbf 0000 0000 8d35 aebf
00000730: 0000 0080 f997 b2bf 0000 00e0 effa c03f
00000740: 0000 0000 2e03 a0bf 0000 0000 1aca 84bf
00000750: 0000 0020 3847 bebf 0000 0000 6aa9 823f
00000760: 0000 0060 07da c3bf 0000 0060 b6cf c03f
00000770: 0000 00e0 c8a8 c83f 0000 0000 4f25 973f
00000780: 0000 0080 c928 ad3f 0000 0000 b286 c2bf
00000790: 0000 0080 3a66 c2bf 0000 0040 aa7f bdbf
000007a0: 0000 0000 e04d 78bf 0000 0040 e914 b63f
000007b0: 0000 0020 5729 c4bf 0000 0040 88f1 c8bf
000007c0: 0000 0040 e22c b43f 0000 0020 c009 c83f
000007d0: 0000 0000 8940 b5bf 0000 0040 cfeb c7bf
000007e0: 0000 0080 a952 cabf 0000 0080 b1f9 a5bf
000007f0: 0000 0020 0d3a c03f 0000 0000 a6e3 c8bf

7.weight f8 [19]
1.0 1.0 1.0 1.0 1.0 1.0 1.0 1.0
1.0 1.0 1.0 1.0 1.0 1.0 1.0 1.0
1.0 1.0 1.0
00000000: 0000 0000 0000 f03f 0000 0000 0000 f03f
00000010: 0000 0000 0000 f03f 0000 0000 0000 f03f
00000020: 0000 0000 0000 f03f 0000 0000 0000 f03f
00000030: 0000 0000 0000 f03f 0000 0000 0000 f03f
00000040: 0000 0000 0000 f03f 0000 0000 0000 f03f
00000050: 0000 0000 0000 f03f 0000 0000 0000 f03f
00000060: 0000 0000 0000 f03f 0000 0000 0000 f03f
00000070: 0000 0000 0000 f03f 0000 0000 0000 f03f
00000080: 0000 0000 0000 f03f 0000 0000 0000 f03f
00000090: 0000 0000 0000 f03f

7.bias f8 [19]
0.0 0.0 0.0 0.0 0.0 0.0 0.0 0.0
0.0 0.0 0.0 0.0 0.0 0.0 0.0 0.0
0.0 0.0 0.0
00000000: 0000 0000 0000 0000 0000 0000 0000 0000
00000010: 0000 0000 0000 0000 0000 0000 0000 0000
00000020: 0000 0000 0000 0000 0000 0000 0000 0000
00000030: 0000 0000 0000 0000 0000 0000 0000 0000
00000040: 0000 0000 0000 0000 0000 0000 0000 0000
00000050: 0000 0000 0000 0000 0000 0000 0000 0000
00000060: 0000 0000 0000 0000 0000 0000 0000 0000
00000070: 0000 0000 0000 0000 0000 0000 0000 0000
00000080: 0000 0000 0000 0000 0000 0000 0000 0000
00000090: 0000 0000 0000 0000

7.running_mean f8 [19]
-0.2532096728120365 0.10202362014184446 0.14580323639751958 -0.059865175439255194 -0.2724719023352739 0.19855132231154693 -0.007915984195890678 -0.14442225629416902
-0.615290903732822 -0.30764266651000816 -0.018157632565536985 0.12788918477278277 -0.21375961940377705 -0.2709600101168883 0.23195940669326667 -0.049617182256784194
-0.22945376974509202 -0.008905168408627168 0.3926639991430869
00000000: 338c f057 9634 d0bf 7cc2 ed4f 381e ba3f
00000010: 0c39 fd31 aea9 c23f 629f 5cf5 a5a6 aebf
00000020: 57f8 66fd 2d70 d1bf 50ec f335 216a c93f
00000030: ff61 e569 4136 80bf cf8a ccb1 6d7c c2bf
00000040: 52e1 a18c 76b0 e3bf 2af1 e0dd 6ab0 d3bf
00000050: b0c4 2a18 ea97 92bf e83b 0e3d ac5e c03f
00000060: 6bb6 45a7 795c cbbf 9074 7ea7 6857 d1bf
00000070: 69a2 df88 d8b0 cd3f 69a1 395e 6c67 a9bf
00000080: 00e2 7fba bd5e cdbf 6ab6 a478 df3c 82bf
00000090: 5cb6 a82e 6821 d93f

7.running_var f8 [19]
0.0599976871138455 0.05297535489446793 0.04374455495356086 0.045865190460749466 0.01923602422583192 0.46676766184014024 0.12422689043090182 0.05169976635493624
0.07985766046035911 0.06852942172225211 0.020972838405675206 0.12933554014087836 0.02075317101273168 0.05605539847626923 0.10372642961481775 0.12954533121604608
0.06851811477767715 0.05874025327444297 0.18894203661696918
00000000: c7ad fa4f 04b8 ae3f 320e 88f1 951f ab3f
00000010: 1ca7 ceb1 af65 a63f 8482 1b6a a47b a73f
00000020: 9eee d1bb 9bb2 933f 35c3 9b78 85df dd3f
00000030: 4e3b af5f 55cd bf3f 121c 694b 6478 aa3f
00000040: 0e27 0338 8d71 b43f a361 1ce9 248b b13f
00000050: 1f07 3a5c e779 953f edca 8e25 118e c03f
00000060: a5e3 26bb 5140 953f d98c 700e 4bb3 ac3f
00000070: 532e edb6 d08d ba3f 6511 7600 f194 c03f
00000080: bb58 2736 678a b13f bd83 8bd5 3313 ae3f
00000090: a804 0eae 402f c83f

9.weight f8 [19, 19]
-0.06505925953388214 -0.13200059533119202 -0.10530203580856323 0.0010491907596588135 0.18972043693065643 -0.19369764626026154 -0.08627310395240784 -0.051466867327690125
-0.08483757078647614 -0.045808032155036926 -0.06335090100765228 -0.1168295294046402 0.0690498799085617 0.044336721301078796 0.06879021227359772 -0.22293008863925934
-0.20428945124149323 -0.03846427798271179 0.1783570498228073 0.04962851107120514 -0.008344903588294983 0.0007940679788589478 0.01603001356124878 -0.059063270688056946
-0.025206193327903748 0.21835584938526154 -0.08514508605003357 -0.07707664370536804 -0.0329410582780838 -0.17884695529937744 0.22018806636333466 -0.11928123980760574
-0.04143601655960083 -0.07408174872398376 0.20012803375720978 0.07157181203365326 -0.2092181295156479 0.02189679443836212 -0.06558316946029663 0.06697584688663483
0.12699590623378754 0.19426073133945465 -0.10000701248645782 0.10346658527851105 -0.08182209730148315 -0.05160273611545563 -0.13853701949119568 0.18438167870044708
-0.04869051277637482 0.09636397659778595 -0.20308512449264526 -0.15214203298091888 0.18995575606822968 -0.13827022910118103 0.20476125180721283 0.14792300760746002
0.08910663425922394 -0.058842435479164124 -0.021392643451690674 0.2222287505865097 0.02876831591129303 0.1610744148492813 -0.170670747756958 -0.2063945084810257
0.09055064618587494 0.11943359673023224 0.17956025898456573 0.001799851655960083 -0.1821618676185608 0.14316166937351227 0.15747769176959991 -0.2221524864435196
0.06778837740421295 -0.054193273186683655 -0.08127467334270477 -0.03448088467121124 -0.12491270899772644 0.04451586306095123 0.14967931807041168 0.11288143694400787
-0.09893147647380829 0.07590322196483612 -0.1521466076374054 0.1976594477891922 0.16161878407001495 -0.16609343886375427 0.20606081187725067 0.18532802164554596
-0.18656842410564423 0.17444024980068207 0.08944778144359589 -0.04201982915401459 0.04388965666294098 -0.07356671988964081 0.02981908619403839 0.21841125190258026
0.2245488315820694 0.05339117348194122 0.07974167168140411 -0.024777516722679138 -0.01270720362663269 0.11332471668720245 0.21471674740314484 0.0917653888463974
0.18328453600406647 0.1772344559431076 0.20657752454280853 0.06515718996524811 0.04863812029361725 -0.12179801613092422 0.2100539356470108 0.08833704888820648
-0.1802695095539093 0.16693077981472015 -0.1042483001947403 -0.08926822245121002 0.036316171288490295 -0.10499874502420425 -0.175775945186615 0.08603803813457489
0.20170606672763824 0.13540484011173248 -0.07096272706985474 0.00956358015537262 -0.07651269435882568 -0.07239598035812378 -0.08688083291053772 0.054667696356773376
-0.07690238952636719 -0.07431191205978394 -0.08802610635757446 0.22757349908351898 -0.16712403297424316 0.2057456225156784 0.0605178028345108 0.19413788616657257
-0.07233384251594543 0.021803542971611023 -0.17243075370788574 0.0812600702047348 -0.10756537318229675 -0.03866074979305267 0.03910578787326813 0.11310769617557526
-0.036679983139038086 -0.10172627866268158 -0.025146856904029846 -0.019120261073112488 0.10616941750049591 0.018182069063186646 0.21169455349445343 0.21664775907993317
0.1294696182012558 -0.053913772106170654 -0.2013181895017624 0.015233978629112244 -0.20794205367565155 0.03188095986843109 -0.06576618552207947 0.07903622090816498
0.13205869495868683 -0.008243277668952942 -0.22490796446800232 -0.005966514348983765 -0.01824699342250824 -0.11815082281827927 -0.21352525055408478 0.15610601007938385
-0.12792938947677612 -0.0729142427444458 -0.12397831678390503 -0.1443980634212494 0.02331627905368805 0.1410657912492752 -0.06177259981632233 0.16455142199993134
-0.11718082427978516 0.2122335284948349 0.09693779051303864 0.07564686238765717 0.14247672259807587 0.0779363363981247 0.13978983461856842 -0.10341887176036835
-0.14742636680603027 0.05919979512691498 0.18436069786548615 0.07383744418621063 0.18628422915935516 0.11502505838871002 0.09456105530261993 0.0852050930261612
-0.14596307277679443 0.17910070717334747 0.1866215318441391 -0.2081737220287323 0.22559447586536407 -0.17620153725147247 -0.15376588702201843 0.11909984052181244
0.17746798694133759 0.07923750579357147 -0.02411666512489319 -0.14548639953136444 -0.19355908036231995 -0.13407915830612183 0.22004957497119904 0.06801341474056244
0.10040135681629181 -0.22037959098815918 -0.044679850339889526 0.21961764991283417 -0.18407279253005981 -0.013431474566459656 -0.2009790986776352 -0.08559851348400116
0.13790656626224518 0.20544390380382538 0.16580624878406525 -0.19464202225208282 0.13109351694583893 0.05436389148235321 -0.018092438578605652 0.1103910356760025
-0.14376777410507202 0.13345305621623993 -0.08012743294239044 -0.07363632321357727 -0.09847921133041382 0.0359921008348465 -0.10386645793914795 0.0614863783121109
0.0586058646440506 0.16232208907604218 0.1332990974187851 0.21276716887950897 -0.2037096619606018 -0.09918105602264404 -0.037175074219703674 0.14693300426006317
-0.2266109734773636 -0.08825971186161041 -0.004997029900550842 -0.05306525528430939 -0.19833704829216003 0.12063179910182953 0.1323218196630478 0.1500987857580185
-0.13913597166538239 0.20026732981204987 0.0679849237203598 -0.2041449099779129 -0.04845501482486725 -0.01022125780582428 0.10248599946498871 0.15034694969654083
00000000: 0000 0040 b9a7 b0bf 0000 0040 65e5 c0bf
00000010: 0000 0000 13f5 babf 0000 0000 a030 513f
00000020: 0000 0060 c248 c83f 0000 00a0 15cb c8bf
00000030: 0000 0080 fe15 b6bf 0000 0080 dd59 aabf
00000040: 0000 0040 eab7 b5bf 0000 0080 2674 a7bf
00000050: 0000 00c0 c337 b0bf 0000 0040 8ae8 bdbf
00000060: 0000 00c0 40ad b13f 0000 0080 4db3 a63f
00000070: 0000 0040 3c9c b13f 0000 0020 f988 ccbf
00000080: 0000 0020 2826 cabf 0000 0000 97b1 a3bf
00000090: 0000 0060 67d4 c63f 0000 0080 e868 a93f
000000a0: 0000 0000 2217 81bf 0000 0000 2005 4a3f
000000b0: 0000 0000 2c6a 903f 0000 0080 8a3d aebf
000000c0: 0000 0000 a7cf 99bf 0000 00a0 15f3 cb3f
000000d0: 0000 0080 11cc b5bf 0000 0080 4bbb b3bf
000000e0: 0000 0080 a6dd a0bf 0000 0000 75e4 c6bf
000000f0: 0000 0060 1f2f cc3f 0000 0020 3789 bebf
00000100: 0000 0000 1a37 a5bf 0000 0080 05f7 b2bf
00000110: 0000 00a0 cb9d c93f 0000 00c0 8752 b23f
00000120: 0000 00e0 a8c7 cabf 0000 0000 1d6c 963f
00000130: 0000 0000 0fca b0bf 0000 0040 5425 b13f
00000140: 0000 00e0 6641 c03f 0000 0020 89dd c83f
00000150: 0000 0040 0f9a b9bf 0000 0040 c97c ba3f
00000160: 0000 0000 4bf2 b4bf 0000 0080 ac6b aabf
00000170: 0000 00c0 94bb c1bf 0000 00a0 d199 c73f
00000180: 0000 0080 f6ed a8bf 0000 0040 4fab b83f
00000190: 0000 0080 b1fe c9bf 0000 00e0 6379 c3bf
000001a0: 0000 0060 7850 c83f 0000 00c0 d6b2 c1bf
000001b0: 0000 00e0 9d35 ca3f 0000 0020 24ef c23f
000001c0: 0000 0040 b1cf b63f 0000 0080 9820 aebf
000001d0: 0000 0000 f4e7 95bf 0000 00e0 fd71 cc3f
000001e0: 0000 0000 7175 9d3f 0000 0020 169e c43f
000001f0: 0000 0000 8ad8 c5bf 0000 00a0 226b cabf
00000200: 0000 00c0 532e b73f 0000 0040 3393 be3f
00000210: 0000 00a0 d4fb c63f 0000 0000 207d 5d3f
00000220: 0000 0080 1451 c7bf 0000 0020 1f53 c23f
00000230: 0000 00a0 3a28 c43f 0000 0020 7e6f ccbf
00000240: 0000 0040 945a b13f 0000 0080 38bf abbf
00000250: 0000 00c0 6ace b4bf 0000 0080 7aa7 a1bf
00000260: 0000 0080 47fa bfbf 0000 0080 c8ca a63f
00000270: 0000 0020 b128 c33f 0000 0040 cce5 bc3f
00000280: 0000 00c0 9253 b9bf 0000 00c0 646e b33f
00000290: 0000 0040 8a79 c3bf 0000 00a0 e74c c93f
000002a0: 0000 00a0 ecaf c43f 0000 00c0 8c42 c5bf
000002b0: 0000 0060 3360 ca3f 0000 0020 d4b8 c73f
000002c0: 0000 0060 79e1 c7bf 0000 00e0 0e54 c63f
000002d0: 0000 00c0 0ce6 b63f 0000 0080 9f83 a5bf
000002e0: 0000 0080 b478 a63f 0000 00c0 44d5 b2bf
000002f0: 0000 0000 e588 9e3f 0000 0060 e6f4 cb3f
00000300: 0000 0020 04be cc3f 0000 0080 1656 ab3f
00000310: 0000 0040 f369 b43f 0000 0000 475f 99bf
00000320: 0000 0000 3c06 8abf 0000 0040 d902 bd3f
00000330: 0000 00a0 d67b cb3f 0000 00c0 ef7d b73f
00000340: 0000 0020 de75 c73f 0000 0060 9eaf c63f
00000350: 0000 00e0 2171 ca3f 0000 0040 24ae b03f
00000360: 0000 0080 18e7 a83f 0000 00a0 272e bfbf
00000370: 0000 0020 0ce3 ca3f 0000 00c0 419d b63f
00000380: 0000 0040 1213 c7bf 0000 00e0 fc5d c53f
00000390: 0000 0040 04b0 babf 0000 0040 48da b6bf
000003a0: 0000 0080 0898 a23f 0000 00a0 32e1 babf
000003b0: 0000 0080 d37f c6bf 0000 00c0 9606 b63f
000003c0: 0000 0020 81d1 c93f 0000 0020 f254 c13f
000003d0: 0000 0000 9d2a b2bf 0000 0000 1296 833f
000003e0: 0000 0000 5696 b3bf 0000 0000 8b88 b2bf
000003f0: 0000 0080 d23d b6bf 0000 0080 67fd ab3f
00000400: 0000 0000 e0af b3bf 0000 0000 1b06 b3bf
00000410: 0000 0000 e188 b6bf 0000 00e0 2021 cd3f
00000420: 0000 0000 5264 c5bf 0000 0060 df55 ca3f
00000430: 0000 0080 30fc ae3f 0000 00a0 82d9 c83f
00000440: 0000 0080 7884 b2bf 0000 0000 ab53 963f
00000450: 0000 0000 3612 c6bf 0000 00c0 75cd b43f
00000460: 0000 0080 6789 bbbf 0000 0080 57cb a3bf
00000470: 0000 0080 ac05 a43f 0000 0040 a0f4 bc3f
00000480: 0000 0000 b8c7 a2bf 0000 00c0 bb0a babf
00000490: 0000 0000 19c0 99bf 0000 0000 4394 93bf
000004a0: 0000 0040 eb2d bb3f 0000 0000 529e 923f
000004b0: 0000 00a0 ce18 cb3f 0000 0020 1dbb cb3f
000004c0: 0000 00e0 7592 c03f 0000 0000 969a abbf
000004d0: 0000 0060 cbc4 c9bf 0000 0000 fe32 8f3f
000004e0: 0000 0060 d89d cabf 0000 0080 b352 a03f
000004f0: 0000 0080 0dd6 b0bf 0000 00c0 b73b b43f
00000500: 0000 00a0 4ce7 c03f 0000 0000 dae1 80bf
00000510: 0000 00c0 c8c9 ccbf 0000 0000 5870 78bf
00000520: 0000 0000 57af 92bf 0000 00e0 213f bebf
00000530: 0000 00a0 cb54 cbbf 0000 0020 48fb c33f
00000540: 0000 0080 fd5f c0bf 0000 0000 82aa b2bf
00000550: 0000 0000 0bbd bfbf 0000 00c0 a27b c2bf
00000560: 0000 0000 39e0 973f 0000 00a0 710e c23f
00000570: 0000 0080 a8a0 afbf 0000 0060 0510 c53f
00000580: 0000 0000 90ff bdbf 0000 00e0 772a cb3f
00000590: 0000 0040 ead0 b83f 0000 00c0 975d b33f
000005a0: 0000 0060 ad3c c23f 0000 00c0 a2f3 b33f
000005b0: 0000 0020 a2e4 c13f 0000 00c0 a879 babf
000005c0: 0000 0000 dede c2bf 0000 0080 6f4f ae3f
000005d0: 0000 00a0 2199 c73f 0000 00c0 02e7 b23f
000005e0: 0000 0060 29d8 c73f 0000 0040 4872 bd3f
000005f0: 0000 0040 2735 b83f 0000 0040 00d0 b53f
00000600: 0000 0000 ebae c2bf 0000 00a0 c5ec c63f
00000610: 0000 00e0 36e3 c73f 0000 00c0 6fa5 cabf
00000620: 0000 00a0 47e0 cc3f 0000 00a0 c58d c6bf
00000630: 0000 00c0 99ae c3bf 0000 00c0 537d be3f
00000640: 0000 0060 45b7 c63f 0000 00c0 e848 b43f
00000650: 0000 0000 0ab2 98bf 0000 0060 4c9f c2bf
00000660: 0000 0040 8bc6 c8bf 0000 0080 8129 c1bf
00000670: 0000 00a0 952a cc3f 0000 00c0 5369 b13f
00000680: 0000 0040 e7b3 b93f 0000 0000 6635 ccbf
00000690: 0000 0000 47e0 a6bf 0000 0060 6e1c cc3f
000006a0: 0000 0080 b28f c7bf 0000 0000 f681 8bbf
000006b0: 0000 00e0 aeb9 c9bf 0000 00c0 c8e9 b5bf
000006c0: 0000 0020 eca6 c13f 0000 0060 fc4b ca3f
000006d0: 0000 00a0 2339 c53f 0000 00a0 07ea c8bf
000006e0: 0000 0020 acc7 c03f 0000 0080 95d5 ab3f
000006f0: 0000 0000 d386 92bf 0000 0040 9642 bc3f
00000700: 0000 0080 fb66 c2bf 0000 0060 fd14 c13f
00000710: 0000 0040 3b83 b4bf 0000 0080 d4d9 b2bf
00000720: 0000 0000 ef35 b9bf 0000 0080 8e6d a23f
00000730: 0000 0000 fe96 babf 0000 0080 247b af3f
00000740: 0000 0080 9601 ae3f 0000 0060 f8c6 c43f
00000750: 0000 00e0 f10f c13f 0000 0060 f43b cb3f
00000760: 0000 0080 2813 cabf 0000 0000 ee63 b9bf
00000770: 0000 0080 9c08 a3bf 0000 0060 b3ce c23f
00000780: 0000 00a0 9601 cdbf 0000 0040 3098 b6bf
00000790: 0000 0000 c477 74bf 0000 0080 5e2b abbf
000007a0: 0000 00c0 1b63 c9bf 0000 00c0 b9e1 be3f
000007b0: 0000 00e0 ebef c03f 0000 00e0 6f36 c33f
000007c0: 0000 0020 35cf c1bf 0000 0020 5ca2 c93f
000007d0: 0000 00c0 7567 b13f 0000 00a0 6b21 cabf
000007e0: 0000 0080 18cf a8bf 0000 0000 e2ee 84bf
000007f0: 0000 00c0 853c ba3f 0000 00a0 913e c33f

10.weight f8 [19]
1.0 1.0 1.0 1.0 1.0 1.0 1.0 1.0
1.0 1.0 1.0 1.0 1.0 1.0 1.0 1.0
1.0 1.0 1.0
00000000: 0000 0000 0000 f03f 0000 0000 0000 f03f
00000010: 0000 0000 0000 f03f 0000 0000 0000 f03f
00000020: 0000 0000 0000 f03f 0000 0000 0000 f03f
00000030: 0000 0000 0000 f03f 0000 0000 0000 f03f
00000040: 0000 0000 0000 f03f 0000 0000 0000 f03f
00000050: 0000 0000 0000 f03f 0000 0000 0000 f03f
00000060: 0000 0000 0000 f03f 0000 0000 0000 f03f
00000070: 0000 0000 0000 f03f 0000 0000 0000 f03f
00000080: 0000 0000 0000 f03f 0000 0000 0000 f03f
00000090: 0000 0000 0000 f03f

10.bias f8 [19]
0.0 0.0 0.0 0.0 0.0 0.0 0.0 0.0
0.0 0.0 0.0 0.0 0.0 0.0 0.0 0.0
0.0 0.0 0.0
00000000: 0000 0000 0000 0000 0000 0000 0000 0000
00000010: 0000 0000 0000 0000 0000 0000 0000 0000
00000020: 0000 0000 0000 0000 0000 0000 0000 0000
00000030: 0000 0000 0000 0000 0000 0000 0000 0000
00000040: 0000 0000 0000 0000 0000 0000 0000 0000
00000050: 0000 0000 0000 0000 0000 0000 0000 0000
00000060: 0000 0000 0000 0000 0000 0000 0000 0000
00000070: 0000 0000 0000 0000 0000 0000 0000 0000
00000080: 0000 0000 0000 0000 0000 0000 0000 0000
00000090: 0000 0000 0000 0000

10.running_mean f8 [19]
-0.33883334990662606 -0.026798805027517827 0.15748043760917835 0.02798652051892938 0.24413999040543555 0.7669121225163668 -0.21369816051492757 0.2824848064969547
-0.3142242882096148 0.4427938222476781 0.18763502463990614 -0.08281958056064213 -0.00021372824853437288 -0.01983965308797569 0.343291271043416 -0.2531640548854529
-0.24737045457512147 0.223419435623432 0.19949094246428675
00000000: 4828 2913 72af d5bf f707 a95c 2571 9bbf
00000010: b245 a5a8 5128 c43f c637 6e99 7fa8 9c3f
00000020: e0f2 37ad fa3f cf3f c3a3 a34a 8b8a e83f
00000030: a240 5019 765a cbbf 1f5d 6127 3b14 d23f
00000040: f206 5e30 401c d4bf e32c 5be6 bb56 dc3f
00000050: 79ce 34ab 6c04 c83f 0bf5 f9fd a933 b5bf
00000060: 6a3e e5ac 8703 2cbf cf15 b594 d850 94bf
00000070: 418f 88f3 7bf8 d53f 865e 1002 d733 d0bf
00000080: 5aca 32c6 d5a9 cfbf b78e a510 0299 cc3f
00000090: f7bc dd50 eb88 c93f

10.running_var f8 [19]
0.03703905983826986 0.15859509667566657 0.09502962481212583 0.09148065931244308 0.2981040868036407 0.02862566892918367 0.02820064182896853 0.0754472608028948
0.3332625925708527 0.10725289615500037 0.2779024103717173 0.16477170811087405 0.020235636945331648 0.09442914176707656 0.05884498131340531 0.20848861292303364
0.11381312956386365 0.06797413754561177 0.1388948981864492
00000000: 3523 5c9d c8f6 a23f be93 c318 d84c c43f
00000010: 7f1f b88a dc53 b83f 5fa5 f6c7 466b b73f
00000020: 8909 e829 2314 d33f b103 821f 0c50 9d3f
00000030: e0c9 8609 a1e0 9c3f 9aa1 b8fd 8250 b33f
00000040: 679b 04a0 2c54 d53f 2313 6301 ed74 bb3f
00000050: 93ab 0131 27c9 d13f a435 d244 3d17 c53f
00000060: 1062 939b a6b8 943f 1ccf ad1b 822c b83f
00000070: 7fb3 8cec ed20 ae3f efe1 0b3f c1af ca3f
00000080: 650b 5575 db22 bd3f 0072 bbc9 c066 b13f
00000090: dd61 a5da 4ec7 c13f
