PCA和神经网络/check_point/Net_encoder2.pkl (torch, 10431 bytes, 15 tensors)

weight f8 [12, 12]
-0.2737588312349891 0.46281776375260775 0.31488205161385086 -0.4470523866100311 0.9784817043706786 -0.010257157848460676 -1.9053543955940886 -0.6960995771031311
-0.12990968621069127 0.6925748078914371 1.6824198108267931 0.24427910482339094 -2.1708938843325916 -0.3039719401769042 0.8843588833673577 -0.005056349454359883
-0.3211986518293606 -0.0028149644807077987 0.8567178763140144 0.9195832311738308 -0.4374832138628062 0.2874403597139733 0.10160262880918375 0.24226524313239955
-0.24101510566608886 -1.2327837338476297 0.7385304166179445 -0.035559198424109296 0.10299807871499822 0.004219561419405565 1.2042382980999724 0.8026216102051884
-0.08747931990508342 -0.06545401289481857 -1.4453455198775678 1.5547364910484043 -0.3101077281650553 -0.8127538919529627 -1.0550607813612143 0.08327424112181134
0.3483426957063487 0.014566744508243353 0.7910932085511431 0.6368851363334309 0.18984245033044622 1.2368575435048332 -0.18791521217957174 -0.9467970581540084
-0.639729732627309 -0.3908188925156457 -0.641925273962549 0.17185615931345113 -0.45817408185698993 0.0016167193843063385 -0.4700661405902594 -0.5287145005123992
0.1406172828837899 0.044034466747738435 -2.2952692544998623 -3.274613790686943 -1.4192133789513615 1.8652243632324987 -0.024455559373875384 -0.0017941100598061702
-0.25181748768943485 -0.02171900845227729 -2.621909138568779 -0.16825110050025083 -0.02782855107536076 -0.6077885711116511 -0.0616676333892746 -0.05800897765669935
-2.4025093799728943 1.7486809208939755 0.42103807255019965 0.18271333882338664 -0.7012113827764579 -0.03292064409874827 0.5817789157372639 0.3683946191110212
-0.0018070623091761863 -0.0034690847844974742 -0.9501218467972126 0.3254896251030921 -1.1323073190793185 -1.6447610615742754 0.8544011696605656 -0.034487261607377126
0.4892945197861973 0.004211403997268302 3.803023841774748 -0.5993253427792944 0.05093028371104656 0.15759633673746815 -0.2105279650017004 0.01631863179612431
1.7523283488527648 0.4537716102431012 0.7410962697373751 0.06405728229826715 -0.8509961863054469 0.006726498106752761 0.8036060518488874 -0.09828921092666972
0.01394550902739675 -0.2213290315604619 -0.943880879569283 0.9478976837480526 0.5997907049232385 -0.6875082422291727 0.8144146817760118 -0.07316542068550033
-0.4071603750367989 0.004558842312254212 2.2872407821296243 0.16861819941090728 0.0002400972869627589 -0.4279427713449624 -1.1527127003889834 0.8289832197235145
0.14531270164915167 -0.37960766737167173 -0.09802168360757046 0.029740715180960234 -0.21872648977551074 -0.0010373481882657918 0.9608905156725172 -0.5842819429711343
0.06935651044107172 -3.3626014880967556 -0.6555105136753496 -1.0679378926676728 1.2778592578268095 -1.4046991824299702 -0.0920944031625337 0.09730624160194355
0.11525622021332534 0.003508652508617211 3.3103077293800736 0.202671937702957 0.11761260747033236 0.8261632122386284 -0.5096910117859342 -0.03709578855432295
00000000: 3e4f c9c2 4385 d1bf cad1 d465 ce9e dd3f
00000010: 10d9 710c 0727 d43f 6caf 059d 819c dcbf
00000020: 7834 00dd b84f ef3f ee87 126c b401 85bf
00000030: 02dd 05e4 547c febf 2a5b cd9e 7246 e6bf
00000040: 7ab1 da6e e1a0 c0bf aaab bda4 9229 e63f
00000050: 1e4c 1a09 31eb fa3f ee03 28a7 8944 cf3f
00000060: ee5b e29c fd5d 01c0 c288 7db9 4674 d3bf
00000070: 18ad 3f00 ab4c ec3f 2eae b278 f7b5 74bf
00000080: d816 48ca 848e d4bf a611 4a8c 680f 67bf
00000090: 3c5a 959b 3b6a eb3f 7aee facf 396d ed3f
000000a0: 14be 0598 b9ff dbbf 4e68 2140 6c65 d23f
000000b0: 6c4e ec3f a102 ba3f ca06 1b28 8c02 cf3f
000000c0: 54c3 563e 95d9 cebf 52a9 be6f 7bb9 f3bf
000000d0: e035 4f8a 0aa2 e73f 8567 9bb4 d034 a2bf
000000e0: 70ba a103 155e ba3f d305 cce4 8748 713f
000000f0: 9ce1 ae60 8f44 f33f d49c dc83 13af e93f
00000100: 6293 1172 0b65 b6bf 0974 c61c 98c1 b0bf
00000110: 56b5 b49f 2220 f7bf 0a36 ef5e 33e0 f83f
00000120: 582b ad15 ced8 d3bf 664f 3473 1402 eabf
00000130: 65d1 f369 87e1 f0bf 66a7 37ee 7551 b53f
00000140: e8fd 7629 3f4b d63f fe3e 2d5a 2bd5 8d3f
00000150: 6413 5ab4 a250 e93f ee89 fbef 5c61 e43f
00000160: 1ce8 c7e5 c14c c83f 62a0 b222 2bca f33f
00000170: 78b7 5d0d 9b0d c8bf 240e 1758 294c eebf
00000180: 4038 fd7c aa78 e4bf 70df 803e 2d03 d9bf
00000190: bea3 44df a68a e4bf 3908 eff3 61ff c53f
000001a0: 9cd6 5c62 b952 ddbf bc52 7938 037d 5a3f
000001b0: ceb1 324b 9015 debf 36e5 13ac 3aeb e0bf
000001c0: 3f7f 9e43 bfff c13f aa1b 2885 af8b a63f
000001d0: ccba 7c20 b65c 02c0 823f 10b7 6832 0ac0
000001e0: 9e44 8a16 19b5 f6bf 7c93 7c80 f5d7 fd3f
000001f0: 8e5e ddce e00a 99bf e812 1102 0b65 5dbf
00000200: e5f7 8b18 c71d d0bf 2a2d 04fc 813d 96bf
00000210: 3ae4 997f abf9 04c0 2c11 1587 4089 c5bf
00000220: e211 0e73 167f 9cbf dcd3 7904 0173 e3bf
00000230: aede 4169 e692 afbf d4e0 d14b 5ab3 adbf
00000240: d888 7ad6 5638 03c0 840f 66d8 98fa fb3f
00000250: bc55 feab 49f2 da3f 7a0b 6593 2663 c73f
00000260: 4c73 93da 5270 e6bf eee5 8883 f9da a0bf
00000270: 2201 13d1 ee9d e23f 6cab 4606 c793 d73f
00000280: 9084 4361 5e9b 5dbf f776 49b6 326b 6cbf
00000290: 5cb1 66ee 6567 eebf 4053 c06f d2d4 d43f
000002a0: 4879 8747 ee1d f2bf d021 93f9 f050 fabf
000002b0: 9e66 2b1f 4157 eb3f 8eed 7679 50a8 a1bf
000002c0: e0ff 25f6 9950 df3f 2424 0427 fa3f 713f
000002d0: 86a5 92c3 976c 0e40 7ad5 5c57 ac2d e3bf
000002e0: de73 d4bd 8813 aa3f c6df 20e4 1d2c c43f
000002f0: b6b1 4992 94f2 cabf 71ef 84d7 d4b5 903f
00000300: 24d2 6273 8909 fc3f 723b 7614 980a dd3f
00000310: 36b5 3686 0fb7 e73f aaac 8adc 0e66 b03f
00000320: d87b a65a 5c3b ebbf 1568 2996 3e8d 7b3f
00000330: 7ae0 f109 24b7 e93f 1dcd 7a52 7b29 b9bf
00000340: f205 9789 768f 8c3f 8890 1a7c 8254 ccbf
00000350: ae3b a2ac 4534 eebf 7cdd f485 2d55 ee3f
00000360: 10e2 c246 7c31 e33f 0e5a 0349 1100 e6bf
00000370: e886 f360 af0f ea3f 8ed4 0a11 f8ba b2bf
00000380: 3ca6 c063 ea0e dabf eb54 38ea 4aac 723f
00000390: f597 2ae5 444c 0240 f078 fdf9 4795 c53f
000003a0: bd44 a0fd 5378 2f3f 381e df13 6a63 dbbf
000003b0: 28ac 5ddf 8271 f2bf 1ca6 34d1 0787 ea3f
000003c0: bc64 a34a 9b99 c23f f004 2bf5 7d4b d8bf
000003d0: 30b4 64f5 f217 b9bf 245c 3f9c 5974 9e3f
000003e0: b666 2dc8 3aff cbbf 1e3d c322 f4fe 50bf
000003f0: 8033 7b77 9dbf ee3f 1c8a 960b 70b2 e2bf
00000400: 08ed 1b28 59c1 b13f 1cda e69b 9be6 0ac0
00000410: e66e 4d2f f1f9 e4bf 44ab 320b 4616 f1bf
00000420: 961c 948c 1c72 f43f 1613 94d9 a579 f6bf
00000430: f04b bab1 7f93 b7bf 8784 60d5 0fe9 b83f
00000440: fd0f 7a80 6e81 bd3f 0e9a e178 2dbe 6c3f
00000450: 4611 6b9e 827b 0a40 ac25 2070 27f1 c93f
00000460: 54af ae1e dc1b be3f 9624 37d5 ed6f ea3f
00000470: 91f1 5586 634f e0bf f2fe 511d 38fe a2bf

weight f8 [12]
0.26801296108322303 0.8187964581433314 0.5675118294129524 0.3510824032892724 0.508521333226211 1.804505801386978 0.19687731573035883 0.9703392856313493
0.5051612241048493 0.4766728550756859 1.2546616464885911 0.3419391416446752
00000000: 8a6b b0d5 1f27 d13f bacc 39a1 9433 ea3f
00000010: 127f 6d91 0e29 e23f 4606 1554 2278 d63f
00000020: efcb f087 ce45 e03f b463 a679 41df fc3f
00000030: 9c6d 31a0 4633 c93f d4f0 39f9 040d ef3f
00000040: de9a 17df 472a e03f a639 dcdc ce81 de3f
00000050: 986c 3317 1813 f43f 2a84 a5b5 54e2 d53f

bias f8 [12]
0.11756449728931337 -1.596955476933824 -0.5856965860292176 -0.48397004636998864 -0.2668824938102433 -1.5123611162874933 0.2958469558979842 -1.2892952801989277
-0.5929416628219959 -0.1910550977727682 -0.11192416151772988 0.3036975231924375
00000000: 763d 07f7 b418 be3f ea94 a92f 218d f9bf
00000010: 98fa 4bc4 06be e2bf eac5 5980 5df9 debf
00000020: 028e b24f 9a14 d1bf 3e26 e391 a132 f8bf
00000030: e5fd 0c12 28ef d23f fe76 7516 f4a0 f4bf
00000040: de33 48cb 60f9 e2bf 0485 5552 7e74 c8bf
00000050: b8d2 59d5 0fa7 bcbf d036 7fbc c76f d33f

running_mean f8 [12]
-0.037592228858554524 -0.06504337451772244 -0.07448594537777405 0.12856433739463285 0.05048343629279162 -0.1501569489502119 -0.37219174560647267 0.0215890458158268
0.11029118305387939 -0.027057003109544533 -0.03530338553806829 -0.018978893298166988
00000000: 92fe 0fe3 493f a3bf 6606 60be aea6 b0bf
00000010: 25c0 68cb 8211 b3bf 9a5b 45d4 cb74 c03f
00000020: d006 bc07 f7d8 a93f 0710 81c8 5738 c3bf
00000030: 1324 ce53 fdd1 d7bf 895c ec56 701b 963f
00000040: 66e9 4000 0b3c bc3f c7dc eebd d4b4 9bbf
00000050: 2aee a50c 4913 a2bf 509e 1ef8 336f 93bf

running_var f8 [12]
15.676994557387797 7.194003647721108 10.729831904464985 6.562281763944606 16.763407612512 16.577596652064628 8.164228017267822 22.92580306280836
6.455427977533381 12.416203496575031 16.638218544147666 20.084905870956163
00000000: e619 d707 9f5a 2f40 4511 69e4 a8c6 1c40
00000010: 4f82 0287 ac75 2540 fa1d 6dca c63f 1a40
00000020: a941 69ae 6ec3 3040 8ce5 ca5f dd93 3040
00000030: 2381 d6b1 1554 2040 6d4c f56d 01ed 3640
00000040: d6c1 34b6 5bd2 1940 8d8a ec9f 18d5 2840
00000050: a1d0 5e4a 62a3 3040 c0fe 2264 bc15 3440

weight f8 [12, 12]
0.22784115247433473 -2.280961645882158 -0.03970656331599788 -0.44520339262924336 0.13803344358193664 -3.721455891277822 0.27370746155461445 -0.810001649963981
0.19389176253492713 -0.34100478962744796 0.04956448854299017 0.1395878095923509 0.01836319908349965 0.09599524328665388 -0.04381825355456198 -0.8677443966054299
0.004866710891837181 -2.4112593753480347 0.11120661318438402 0.8685839742733044 -0.49874707837716126 0.4497739082460025 0.4366690192039143 0.12790275502971077
0.7859093819574421 1.0108428700333882 -0.5612101239353556 -0.6165982326370754 -0.03561035882841681 -1.8939112890120895 -0.15421554268175885 0.6106615790144394
0.35750009747375366 0.29346266394313014 0.019506491671297407 -0.04935269279439665 0.841016404576097 -0.582272648592282 -0.26003657390432167 -0.12410815550040172
0.4770224143982227 0.9232149639657821 0.5510139091064339 -0.09739250136143279 1.0599166685634724 -0.6652051072002259 -0.4237351470582682 0.8271596070601497
-0.8078984635857187 -0.22253074802380696 0.2572943633061723 -1.1047093786003133 0.2752234216493662 -1.2298633411506703 0.5881779547062638 1.1975969571373888
-0.65391465216602 0.034482231542079265 0.02833668860553542 0.9167536054228027 -0.03087321445391108 -0.5371169502403185 -0.02919265176741262 -0.2085156164120986
-0.0019188777496928497 -1.1105750011841309 -0.052156056699554434 0.4497529140885407 0.19456934275832782 -0.7973598686305092 -1.2445192971450179 0.10795739154869324
0.672724850956153 -0.6315534019914284 -0.24579728217817848 -0.07984050916535522 0.355744710035343 0.9089233729806785 0.38752001270515424 -0.47001669848123984
1.2762615277424056 -0.7902077383080126 -0.25879768330099967 0.4663731891705216 -0.7872287370160307 0.075743979571896 0.3142291949258643 0.9293889280808805
-0.7736420657805732 -0.027337048654777096 -0.9520978728171288 -0.11047221819929123 -0.3429098521733034 -0.005159218736434972 0.6286425715955855 -0.959314177808509
-0.15888635803986678 -0.5665631016498356 -1.8090232460751543 0.19599710557907285 -0.08114545989971361 -3.386111288793119 -0.015607328618108563 0.6909428594439262
-0.14127100643539645 0.2507317729909506 -0.025030205851518564 -0.3375787559296688 -0.17565227746214385 -1.8002807536785066 -0.14177130245123282 -0.354657159182989
0.06950453707020272 -0.1126097425678212 0.025655852273491403 0.7125267815782446 0.11569709696082048 -1.3211485533717133 -2.598843671294432 0.20810791024295933
-0.05896690238159438 -2.3310225873584534 0.09705872349731445 -0.17554088306275617 0.030677576302853372 -2.770238012685409 0.2384808188950513 -1.5409041548117939
-0.22207433206756766 0.13336971276990248 0.0357314667096051 0.02213524610688464 -0.2280506119824494 -0.42047297508534387 0.2343387029382606 0.23463634914048562
-0.052446190978304524 -6.68346516061335 0.11120284217505319 0.11641299938228916 -0.27155517497121245 0.014923893847354612 0.062147250177693986 -0.3806042350824579
00000000: 32b5 471d e629 cd3f 20f4 c3d1 683f 02c0
00000010: 62ed c12d 6b54 a4bf 544b da5e 367e dcbf
00000020: a226 f872 14ab c13f b45b 94aa 8ac5 0dc0
00000030: 7816 034d 6c84 d13f 90a4 8994 88eb e9bf
00000040: 5491 86fd 71d1 c83f 04ac cec0 05d3 d5bf
00000050: 7893 ab42 8460 a93f 3a49 8f6a 03de c13f
00000060: d0e4 0d6e cdcd 923f a8dc 7cee 2493 b83f
00000070: e827 f89b 586f a6bf 74a4 96e5 8fc4 ebbf
00000080: dd95 e9c1 1def 733f 7858 fa5a 424a 03c0
00000090: 6cd1 b95e 0978 bc3f 6cac 6a9e 70cb eb3f
000000a0: ccbf a6dd 78eb dfbf 12af a080 18c9 dc3f
000000b0: b20f 2a9d 62f2 db3f 4ae0 f512 1e5f c03f
000000c0: a20e a46e 2b26 e93f ca02 c392 692c f03f
000000d0: 1391 0fef 6ef5 e1bf 0e53 7e37 2cbb e3bf
000000e0: 733d 225d 853b a2bf 6650 7dec 754d febf
000000f0: a030 2dbc 55bd c3bf b84d d926 8a8a e33f
00000100: 84dc bd16 48e1 d63f e8e5 0ea0 17c8 d23f
00000110: 2cd4 267f 82f9 933f eafd 0a93 c144 a9bf
00000120: 12b9 213c 9be9 ea3f 92e4 e13f faa1 e2bf
00000130: 6eb5 2b71 70a4 d0bf 0c86 0a55 8dc5 bfbf
00000140: 2828 5305 8987 de3f b425 ad1b fa8a ed3f
00000150: a01a e8eb e7a1 e13f d415 3908 b7ee b8bf
00000160: 3872 3f2e 6bf5 f03f 20d4 9138 5c49 e5bf
00000170: 1cfc b105 7a1e dbbf 60a8 9c6c 1778 ea3f
00000180: 9edb f2e0 4dda e9bf f6ee 8e36 e37b ccbf
00000190: fa16 f6c6 8277 d03f e7c3 cabd e3ac f1bf
000001a0: 9af1 c4b2 429d d13f a8a9 cc2e 85ad f3bf
000001b0: 5c21 f692 5ad2 e23f 701b 4b6d 5b29 f33f
000001c0: 66b4 ad6b deec e4bf 6b5c 88b1 a7a7 a13f
000001d0: c6d0 59fb 4a04 9d3f 2afe 38a8 0b56 ed3f
000001e0: d696 9b59 3a9d 9fbf 071a ede2 0f30 e1bf
000001f0: 088b 7fb2 ade4 9dbf c4fd 98c4 a3b0 cabf
00000200: 0459 844b 5b70 5fbf c074 dd4a eac4 f1bf
00000210: 7a35 a0db 32b4 aabf 6a9f 5272 c0c8 dc3f
00000220: fcc1 f9f1 a5e7 c83f 0a26 ddd7 f883 e9bf
00000230: fea8 0711 8de9 f3bf 9a27 107a 18a3 bb3f
00000240: 5605 4244 f686 e53f 1c62 e77a af35 e4bf
00000250: aa52 330c 4976 cfbf 47dd c277 6d70 b4bf
00000260: 50ea d475 85c4 d63f 6cb4 3078 e615 ed3f
00000270: 1a4e 47bd 20cd d83f 9a40 23eb c014 debf
00000280: febe 2c35 916b f43f 8087 22bd 6149 e9bf
00000290: 27bc 8328 2490 d0bf bcfd cdee 0ed9 dd3f
000002a0: 4c91 fe51 fa30 e9bf d553 211b f563 b33f
000002b0: 76eb e9c4 541c d43f 6ce6 6bd9 8dbd ed3f
000002c0: 54cc 6a01 adc1 e8bf d005 c447 3efe 9bbf
000002d0: 4ee7 4af5 9577 eebf 0254 4844 e847 bcbf
000002e0: c4df 232a 3cf2 d5bf 6c33 ef3b d521 75bf
000002f0: 4a0b bc06 d71d e43f 86da 88a5 b3b2 eebf
00000300: 3ae8 c75f 6356 c4bf 909a 16f1 4821 e2bf
00000310: 768b f95b c2f1 fcbf c250 49e3 6e16 c93f
00000320: 5cf7 7ce8 f2c5 b4bf e4dc ef83 c116 0bc0
00000330: 4d0d f12f bcf6 8fbf a6ec 1633 341c e63f
00000340: 13ab 4118 2b15 c2bf 541c 4447 fd0b d03f
00000350: 747c 2dae 84a1 99bf f0b4 22ed e39a d5bf
00000360: 507b 9519 c67b c6bf bead 0a31 f3cd fcbf
00000370: 100a c5e1 8f25 c2bf d0ec fef0 b3b2 d6bf
00000380: 3de0 a3a1 0ccb b13f 712e 8af9 fdd3 bcbf
00000390: 18d4 dc19 8745 9a3f e2e2 0cf7 04cd e63f
000003a0: 7459 b02f 539e bd3f 3e3a 5eaa 6c23 f5bf
000003b0: 6002 fd8c 6eca 04c0 2226 44ae 47a3 ca3f
000003c0: 9cfd 8cea e830 aebf ee88 972b efa5 02c0
000003d0: 9664 362b d7d8 b83f a4c8 eea7 1f78 c6bf
000003e0: 1ae4 c34b f169 9f3f 7cf5 148c 7229 06c0
000003f0: 5e53 f01a 8a86 ce3f acfe 721d 8ba7 f8bf
00000400: 8c70 c184 ee6c ccbf 97d3 4f3d 4212 c13f
00000410: 5a67 e911 654b a23f f9cf 7838 9faa 963f
00000420: 6611 2630 c330 cdbf daf9 357b 07e9 dabf
00000430: 1e48 a784 cffe cd3f c56f 015b 9008 ce3f
00000440: c469 1a26 3ada aabf ae28 834a debb 1ac0
00000450: da35 5d1a ca77 bc3f 741b 2d09 3ecd bd3f
00000460: 09e6 e3f4 2861 d1bf 89e3 0620 6b90 8e3f
00000470: 745b 19ae c3d1 af3f f87c 99dd d15b d8bf

weight f8 [12]
1.2248225937824366 0.5366513432545097 0.4773299211070141 0.5765250552600736 0.5025076408058657 1.1706926254891101 0.8513984799639696 0.6790937810048434
1.3928234914344517 1.0553992610686063 1.0327452399168584 1.4138801487837083
00000000: ca28 7b93 df98 f33f 2c3e 1470 3f2c e13f
00000010: 04a4 23cc 928c de3f dc54 35ac e472 e23f
00000020: b80a 68e7 8a14 e03f 404e c230 28bb f23f
00000030: 48e6 6906 a83e eb3f 34a6 8ae1 22bb e53f
00000040: eefb 0c49 0149 f63f 1832 e855 eae2 f03f
00000050: 69ae 68df 1f86 f03f 92d5 77ca 409f f63f

bias f8 [12]
-0.3346003178421696 -0.13706045975641018 -0.11767974338499207 -0.7850198324197195 -0.5968091796377402 -1.1133317891268293 -0.4502348945945168 -1.1762156734905052
-0.5844965442099714 -0.8403836340411339 -0.4066544243200265 0.08326165357178211
00000000: b240 9773 176a d5bf ae3f 1d78 328b c1bf
00000010: 9e7e 3d79 4220 bebf f487 5ee9 e11e e9bf
00000020: d4e4 8f90 0f19 e3bf b459 7efe 34d0 f1bf
00000030: 124b f304 a6d0 dcbf 08f3 aa86 c7d1 f2bf
00000040: 1438 c018 32b4 e2bf 149c 0938 6ce4 eabf
00000050: 2c9b 4e47 a006 dabf 1408 1abf a250 b53f

running_mean f8 [12]
-0.5794874939347341 -0.18742397696355906 -0.2579896750520608 0.5711485303935175 0.14149882416265822 -0.6846799713584167 0.4026397427838667 -0.5580353582535829
-0.8197659563882261 -0.9718977070706961 -0.46955564688439144 -1.3662625942724234
00000000: 7680 5c5b 298b e2bf 28ba c545 82fd c7bf
00000010: 2179 4320 e782 d0bf 185b 6648 d946 e23f
00000020: b7bc 192b a21c c23f 5fbd a6f8 e5e8 e5bf
00000030: 5ae6 d47b d9c4 d93f babe b6f7 6cdb e1bf
00000040: 93f8 a1d0 853b eabf 05a2 5d38 c919 efbf
00000050: 4651 c120 330d debf ed5e 822a 36dc f5bf

running_var f8 [12]
2.8470581877434444 1.584780527749385 0.7362750368178238 0.3262407673712313 0.7752248761990199 0.35667008216390333 0.34296639336606954 0.06216940314430542
2.4325128454336653 1.2720406226385217 1.6222731645873847 9.370726035305601
00000000: 4456 7171 c6c6 0640 f456 a0d3 425b f93f
00000010: cbcc 7faa 908f e73f f8ce 9ef4 20e1 d43f
00000020: 0a41 4a66 a4ce e83f 1dc2 96c0 aed3 d63f
00000030: 0799 c850 29f3 d53f 811d a202 abd4 af3f
00000040: 64e6 714b c975 0340 a4a7 9644 475a f43f
00000050: c54c b1b4 d4f4 f93f 9cd3 8acd cfbd 2240

weight f8 [2, 12]
0.8963922233173447 -0.16270329531552097 0.23938812210867916 -0.7733185071121154 -0.12621856061243797 0.18547939826148618 0.6402077041805623 -0.13788140765589701
0.9026078001864981 -0.31176538078334903 -0.05372839344493496 0.7121122528287895 -0.030776181309211153 0.22279297356651306 0.10121442346816203 -0.5689087139275721
-0.2651269056462067 1.5644383826808963 0.4341829756745069 -2.6887620595765647 -0.05692192921366415 -0.6110377847126032 -0.45229469007312384 0.6031108733356236
00000000: d82c 71be 3eaf ec3f a071 2a2a 76d3 c4bf
00000010: 12fa c01d 45a4 ce3f be04 2e74 06bf e8bf
00000020: 4043 fd06 ee27 c0bf 28b3 cef6 c9bd c73f
00000030: ca49 03de 947c e43f 0ae4 4d14 19a6 c1bf
00000040: e04b ddc0 29e2 ec3f 7e53 9fc8 f6f3 d3bf
00000050: 10dc 6cb9 4982 abbf 8a60 9fa2 9fc9 e63f
00000060: 8b14 e090 ca83 9fbf 0896 9feb 7a84 cc3f
00000070: 62e3 ad3e 30e9 b93f 944e 170c 8034 e2bf
00000080: 9591 42d7 d6f7 d0bf 9a8b a38a f007 f93f
00000090: 4a20 4064 a7c9 db3f 08db c4ae 9582 05c0
000000a0: 74bb cb00 df24 adbf dabf be1c 9f8d e3bf
000000b0: 7a2f 816d 65f2 dcbf 02d5 9a2c af4c e33f

weight f8 [2]
1.33432140408586 1.599959927043642
00000000: d46c 8e66 6159 f53f 0002 9994 6f99 f93f

bias f8 [2]
1.1907077188010349 0.5026684153779891
00000000: fa85 7589 230d f33f bbfa 9812 dc15 e03f

running_mean f8 [2]
0.7044657460713272 0.4639672575612585
00000000: 37ea 90bf fb8a e63f 8bfc 68b9 a3b1 dd3f

running_var f8 [2]
0.06635500723240896 0.052529404155955084
00000000: b931 fd49 a4fc b03f 303c db51 22e5 aa3f
